RNN/model_storage/ch6/surname_classification/model.pth (torch, 98722 bytes, 9 tensors)

emb.weight f4 [80, 100]
000000 00 00 00 00 00 00 00 00 00 00 00 00 00 00 00 00
       0.0 0.0 0.0 0.0
000010 00 00 00 00 00 00 00 00 00 00 00 00 00 00 00 00
       0.0 0.0 0.0 0.0
000020 00 00 00 00 00 00 00 00 00 00 00 00 00 00 00 00
       0.0 0.0 0.0 0.0
000030 00 00 00 00 00 00 00 00 00 00 00 00 00 00 00 00
       0.0 0.0 0.0 0.0
000040 00 00 00 00 00 00 00 00 00 00 00 00 00 00 00 00
       0.0 0.0 0.0 0.0
000050 00 00 00 00 00 00 00 00 00 00 00 00 00 00 00 00
       0.0 0.0 0.0 0.0
000060 00 00 00 00 00 00 00 00 00 00 00 00 00 00 00 00
       0.0 0.0 0.0 0.0
000070 00 00 00 00 00 00 00 00 00 00 00 00 00 00 00 00
       0.0 0.0 0.0 0.0
000080 00 00 00 00 00 00 00 00 00 00 00 00 00 00 00 00
       0.0 0.0 0.0 0.0
000090 00 00 00 00 00 00 00 00 00 00 00 00 00 00 00 00
       0.0 0.0 0.0 0.0
0000a0 00 00 00 00 00 00 00 00 00 00 00 00 00 00 00 00
       0.0 0.0 0.0 0.0
0000b0 00 00 00 00 00 00 00 00 00 00 00 00 00 00 00 00
       0.0 0.0 0.0 0.0
0000c0 00 00 00 00 00 00 00 00 00 00 00 00 00 00 00 00
       0.0 0.0 0.0 0.0
0000d0 00 00 00 00 00 00 00 00 00 00 00 00 00 00 00 00
       0.0 0.0 0.0 0.0
0000e0 00 00 00 00 00 00 00 00 00 00 00 00 00 00 00 00
       0.0 0.0 0.0 0.0
0000f0 00 00 00 00 00 00 00 00 00 00 00 00 00 00 00 00
       0.0 0.0 0.0 0.0
000100 00 00 00 00 00 00 00 00 00 00 00 00 00 00 00 00
       0.0 0.0 0.0 0.0
000110 00 00 00 00 00 00 00 00 00 00 00 00 00 00 00 00
       0.0 0.0 0.0 0.0
000120 00 00 00 00 00 00 00 00 00 00 00 00 00 00 00 00
       0.0 0.0 0.0 0.0
000130 00 00 00 00 00 00 00 00 00 00 00 00 00 00 00 00
       0.0 0.0 0.0 0.0
000140 00 00 00 00 00 00 00 00 00 00 00 00 00 00 00 00
       0.0 0.0 0.0 0.0
000150 00 00 00 00 00 00 00 00 00 00 00 00 00 00 00 00
       0.0 0.0 0.0 0.0
000160 00 00 00 00 00 00 00 00 00 00 00 00 00 00 00 00
       0.0 0.0 0.0 0.0
000170 00 00 00 00 00 00 00 00 00 00 00 00 00 00 00 00
       0.0 0.0 0.0 0.0
000180 00 00 00 00 00 00 00 00 00 00 00 00 00 00 00 00
       0.0 0.0 0.0 0.0
000190 69 39 01 3d 43 ed 3d bf e0 77 98 be 03 9f 8c 3c
       0.03154889 -0.7419016 -0.29778957 0.017165666
0001a0 2f 7a 35 be bf a1 08 be 94 81 96 3e 2d 46 b1 3f
       -0.1772239 -0.13342951 0.29395735 1.3849541
0001b0 1c a1 f7 3d a4 ac 22 40 30 f5 23 bf 60 ac fc bf
       0.12091276 2.5417871 -0.64046 -1.9740105
0001c0 4d bd a8 be d7 65 02 3c b9 1d 6d 3f 1e 39 f1 bf
       -0.32956925 0.007958851 0.9262348 -1.8845556
0001d0 fb f7 2a 3e 8c d0 ea 3e 0e 13 e2 bf 31 03 16 3f
       0.1669616 0.45862234 -1.7662065 0.5859862
0001e0 cd 21 e0 3f d0 ba 8f 3e 90 36 9f 3e b0 5c 27 bf
       1.7510315 0.28072214 0.31096315 -0.65375805
0001f0 33 5a 28 bf ce 0b a3 3e b3 b1 0c bf a5 82 bb bf
       -0.65762633 0.31844944 -0.5495865 -1.4649245
000200 57 8d 03 c0 4b ea e9 3f ff d9 a6 3f b4 77 e6 be
       -2.0555017 1.8274626 1.3035277 -0.450132
000210 7a 6e ac 3f 09 72 d8 3f 68 dd fe bd c9 57 d7 bf
       1.3471215 1.6909801 -0.12444574 -1.6823665
000220 1d f9 d9 bc 1a a7 97 3d 98 9e 86 3f 69 8a 2d 3f
       -0.026608044 0.07404919 1.0517149 0.6778932
000230 da 01 9d 3e ae 4a 3f bf a4 55 3e 3f 88 3d 63 3f
       0.30665475 -0.7472333 0.7434943 0.88765764
000240 5c 65 12 40 2d 0d 76 3f e4 cc c3 bf 65 1b 95 be
       2.2874365 0.96113855 -1.5296903 -0.29122463
000250 af 5f e9 bd 16 99 a0 be 92 1a 21 bf 97 ba 91 3f
       -0.11395203 -0.31366795 -0.6293117 1.1385068
000260 21 c4 7d bf a6 11 2e 3e a8 c8 9c 3f fb 2a 70 be
       -0.99127394 0.1699892 1.2248735 -0.23453896
000270 09 51 87 bf 14 7e 27 bf 1f a2 cb 3f e0 11 33 bf
       -1.0571605 -0.65426755 1.590885 -0.6994915
000280 f1 63 65 bf 4e 8f 87 3d 1d 86 66 bd 99 d6 15 40
       -0.89605623 0.0661913 -0.056280244 2.341223
000290 ba 4c 2e c0 ee 79 02 3f 05 81 50 bf 04 f2 7b be
       -2.723433 0.509673 -0.8144687 -0.2460404
0002a0 67 bc 93 3b 17 09 03 40 a3 53 21 be 2a eb 5f be
       0.0045085433 2.0474298 -0.15754561 -0.21867052
0002b0 0c 0c ad bf 0e 9f 6a bd 27 4f ed bf 13 44 b1 bf
       -1.3519301 -0.057280593 -1.853978 -1.38489
0002c0 3a d8 b0 be ec cc 94 bf c5 f2 13 3e 9c 50 2a 3e
       -0.34539968 -1.1625037 0.14448078 0.16632313
0002d0 da 2d 40 3f b3 c5 69 3f 91 26 dd bf ee 1b a7 3f
       0.75069964 0.9131729 -1.7277395 1.3055398
0002e0 37 96 75 3f dd ac 87 3f bd 3e 21 3f 77 b1 a4 bf
       0.95932335 1.0599629 0.62986356 -1.2866658
0002f0 c4 fe 2f bf 94 d8 08 40 ea eb 02 3f 24 0b 9c 3f
       -0.68748116 2.1382189 0.51141226 1.21909
000300 49 90 43 3e 2f 5d af be 3b d3 e5 3f 58 1b b2 3f
       0.19098009 -0.3425078 1.7955087 1.3914595
000310 09 0d 8a 3f 78 6d 1d bf cd ee ea be 79 46 11 3f
       1.0785228 -0.6149516 -0.45885316 0.5674816
000320 56 ac 3f 3d d1 15 dc bf 43 10 a2 3f bf 4b c2 3e
       0.04679521 -1.7194158 1.2661213 0.37948415
000330 9f a4 92 bf 67 3b 86 bf 67 0c b8 bd 67 04 3d 3d
       -1.1456488 -1.0486878 -0.089867406 0.046146777
000340 72 3f 4e 3e 48 95 33 bf 69 7f d8 be 79 64 07 bf
       0.2014139 -0.7014966 -0.42284706 -0.52887684
000350 85 e1 3b 3f 6a 53 0a 3f 53 37 95 3f 9b c5 43 3f
       0.7339099 0.5403353 1.1657509 0.76473397
000360 ff 34 f1 3e f5 20 86 3f 38 9f 92 be d2 9f 4d bf
       0.47110745 1.0478808 -0.286371 -0.8032199
000370 e8 82 21 bf 23 7b a7 3e b2 b8 0a bf 09 73 06 bf
       -0.6309037 0.32711133 -0.5418807 -0.5251928
000380 75 98 21 bf ac d6 7f be f4 1a f0 bd b9 cd 9c be
       -0.63123256 -0.24984235 -0.11723891 -0.30625704
000390 06 42 63 bd 54 9c 33 3f 43 85 ea bd 2e 62 1c bf
       -0.055482887 0.7016041 -0.11451199 -0.6108731
0003a0 cf 8c 6b 3f 46 26 d1 bf 0c ea 23 3f d6 8a fa bf
       0.9201173 -1.6339805 0.64029 -1.9573619
0003b0 91 72 7e bf 7d 06 e7 3d a8 d2 ea be 91 32 e9 be
       -0.99393564 0.112805344 -0.45863843 -0.45546392
0003c0 d3 7b b4 3f 32 6a 4d bd 88 cc 53 bf be d6 98 bf
       1.4100288 -0.050150104 -0.82733965 -1.1940534
0003d0 d9 a9 ef 3e 7a 52 8e be da bb 4f bd ce ed 57 bf
       0.4680927 -0.277973 -0.05071626 -0.84347236
0003e0 9c 9e 4a be ad ce 52 3e 01 21 44 bf d2 2b b4 bf
       -0.19787067 0.20586653 -0.7661286 -1.4075873
0003f0 5b af 94 3f da 78 f6 bf e8 1b 08 bf 21 4c 93 3f
       1.1616014 -1.9255631 -0.5316758 1.1507608

rnn.rnn_cell.weight_ih f4 [64, 100]
000000 2f 23 a9 bd 3b 8a 19 3d 02 ab 58 bc a7 8b a6 bd
       -0.08258664 0.037485342 -0.013224365 -0.08132105
000010 64 49 05 be 39 92 02 3e fb 11 b9 bc 0e e9 0a 3e
       -0.13016278 0.12751092 -0.022591582 0.13565466
000020 f9 4c 9b bd 97 91 0e bd 1c 08 5e 3d 84 49 b4 3d
       -0.07583041 -0.034806814 0.054206952 0.088030845
000030 0b d5 8b bd 90 7d b1 bd e7 00 ac bd 28 35 91 bd
       -0.06827744 -0.08666527 -0.083986096 -0.07090217
000040 d6 0f 94 3c 5e b4 78 3d 6c 9f ad 3c 92 57 e9 bd
       0.018073957 0.060718887 0.021194182 -0.11393656
000050 a7 6e b4 bd 7e 39 8f bd 81 ad 0b bd 14 98 09 bd
       -0.08810168 -0.06993388 -0.034101013 -0.0335923
000060 66 8d a9 3d 66 54 04 be 96 1a a7 3d 1c d7 c7 bd
       0.08278923 -0.1292282 0.08159368 -0.09757826
000070 8a 70 8c bd 45 a3 bb 3c 5c a8 1e 3c c8 7a c7 3d
       -0.068574026 0.022905001 0.009683695 0.097402155
000080 e2 67 98 bd fc 3b b7 3d 93 dd d1 bd aa 10 a1 3d
       -0.07441689 0.08946988 -0.1024734 0.078645065
000090 57 54 e9 3d 22 32 b6 3d e4 38 f2 3d 8f f9 75 3d
       0.1139304 0.08896281 0.11827257 0.06005245
0000a0 43 3f e6 bd 1c 78 f4 bd 13 de 2e bd 27 a7 66 3d
       -0.11242535 -0.119369715 -0.042692255 0.056311753
0000b0 2c 40 f3 3d a0 ad 81 3d 60 5e 0f bd 6f 1a 3c 3d
       0.11877474 0.063319445 -0.035002112 0.045923647
0000c0 c1 47 77 3d 53 b4 16 bd f0 a8 88 bd 35 e2 1d be
       0.060371164 -0.036793064 -0.06672847 -0.15418322
0000d0 0b a8 8b 3c d4 e9 67 3d 2e e8 c3 bd a3 24 c6 bd
       0.017047903 0.05661948 -0.09565769 -0.09674957
0000e0 be fc 30 3d 5e fa 20 3d 7a 6d 4d bd 56 24 98 3d
       0.043209784 0.03930127 -0.050153233 0.074288055
0000f0 2e cd b3 bd 6c cd 78 3d 31 a5 23 3d 5f 7d 92 3c
       -0.08779369 0.06074278 0.03995246 0.017882047
000100 49 9e a5 bd b8 0c 90 3d 98 7c bb bd 5c 43 a9 39
       -0.08086831 0.07033676 -0.09154624 0.00032284379
000110 1c be 02 be 80 45 e3 bd d9 00 b4 3b e9 20 55 bd
       -0.12767833 -0.110972404 0.005493265 -0.05203334
000120 1c 9f cd bd bf 81 8d bd f8 53 07 3c ac 91 fa 3d
       -0.10040113 -0.06909513 0.008259766 0.12234816
000130 b8 cb 4f bd d3 fa c3 3d 5e 2e a9 bd 5f 33 e0 3b
       -0.05073139 0.09569325 -0.08260797 0.0068420614
000140 2f 2a dd 3d f4 68 96 3d 8a 36 0e be 34 04 b9 3d
       0.107990615 0.07344237 -0.13887993 0.09034005
000150 ec b5 28 bd 19 97 8a 3d db f9 73 bd 02 52 4f 3d
       -0.04118912 0.06767101 -0.059564453 0.050615318
000160 16 57 24 3c 3d 5d d9 3c 31 94 20 3e 10 50 cb bc
       0.0100305285 0.026533717 0.1568153 -0.02481845
000170 f2 80 e3 3d 26 4d e4 bd 1b e5 01 be b6 f9 c0 bd
       0.11108579 -0.111475274 -0.12685053 -0.094226286
000180 d1 b4 f2 3d 31 45 61 bd 86 10 2f 3d b7 1f 91 3d
       0.11850894 -0.054997627 0.042740367 0.07086127
000190 38 b8 08 3d ec a7 38 3d 87 aa 73 3d 77 3e f0 3d
       0.03337881 0.045082018 0.0594888 0.11730664
0001a0 1e f5 26 be 56 02 04 bd 88 f9 77 3b 49 f8 14 bd
       -0.16304442 -0.03222879 0.0037837941 -0.036369596
0001b0 dc 00 5e bd 20 cf 7d bd 39 48 b4 3c 97 81 13 bb
       -0.05420004 -0.061965108 0.022007095 -0.0022507661
0001c0 8e ab be 3d 75 61 23 bd 0c 5a 95 3d 0a 45 ff bd
       0.09310065 -0.039887864 0.07292566 -0.1246434
0001d0 c5 f5 85 3d a5 00 96 bd 41 91 7a bd a3 cb 95 bc
       0.065410174 -0.07324342 -0.06117368 -0.018285578
0001e0 4f d4 29 bd 10 3d e2 bd 28 db d8 bc f3 12 74 3d
       -0.04146224 -0.11046803 -0.02647169 0.059588384
0001f0 00 22 9b 3c 93 73 15 3e d2 f1 16 bd 37 67 18 be
       0.01893711 0.1459487 -0.03685171 -0.14883123
000200 b5 15 bf bd 4b 43 95 bc 3b e8 19 3e 52 65 bf 3d
       -0.09330312 -0.018220564 0.15029995 0.09345497
000210 34 ef 83 3c 9f a6 d2 bd a8 7d 69 3d 8b d4 c3 3d
       0.016105272 -0.10285687 0.0570046 0.09562024
000220 7e 61 74 3d 95 68 19 bd 04 b6 ec bd 36 75 88 3d
       0.05966329 -0.037453253 -0.11558154 0.06662981
000230 3b 84 d7 3d ee 16 84 bd 2c c0 b6 bd 79 e5 34 3d
       0.10523268 -0.06449686 -0.089233726 0.044164155
000240 77 3e 10 be e4 b7 11 bd 9f aa 89 bd a6 de d4 bd
       -0.14086328 -0.035575762 -0.067219965 -0.10394029
000250 41 b4 4a 3d 7f f8 25 3b 36 61 d9 bd bf bb 01 be
       0.04948831 0.0025325117 -0.10614245 -0.12669276
000260 bc 6b 54 3d 18 39 dd bd 78 f3 ca 3c 33 db f7 3d
       0.051860556 -0.108019054 0.024774298 0.12102356
000270 c0 fb 11 3e ea 23 33 bd 79 0d 85 bd 79 76 ff 3c
       0.14256191 -0.043735422 -0.0649671 0.031184422
000280 8b 25 95 bd 4a 3f aa bc 15 19 a6 bd 05 9f 57 3d
       -0.072825514 -0.020782132 -0.08110253 0.052641887
000290 de 02 8a bd 55 63 ae 3d 0e 79 36 bb 27 9e a5 3d
       -0.06738828 0.0851504 -0.002784315 0.08086806
0002a0 9e 2f 43 be 3f bb 98 bd c8 76 68 3c cb 70 ca 3d
       -0.19061133 -0.07457589 0.014188476 0.09884795
0002b0 e6 0e 41 3d 27 de 88 bc 23 25 03 bd 31 ca 07 bc
       0.04713335 -0.016707493 -0.03201784 -0.008287952
0002c0 74 85 28 bc 88 45 a4 3c 14 94 12 bd 23 37 31 bd
       -0.010285724 0.020052686 -0.03578575 -0.043265473
0002d0 ee 44 42 3c b3 f4 ce 3d 24 1d e2 3d 51 56 11 be
       0.011857254 0.101052664 0.110407144 -0.14193083
0002e0 57 41 a2 bd 95 08 6e bd ff 50 88 3d 28 f4 15 be
       -0.07922619 -0.058113653 0.06656074 -0.1464392
0002f0 23 de c1 bd f2 9e 77 3d 98 22 68 bd 7b fe 00 bd
       -0.09466197 0.060454316 -0.056673616 -0.03149269
000300 fe 6d 55 3d 0e 64 a2 ba 50 f1 1f bd 03 4c 77 3d
       0.05210685 -0.0012389438 -0.039048493 0.060375225
000310 c6 f4 35 3d 57 7a 98 bd da e4 00 be 9c de 1f 3e
       0.044422887 -0.074452095 -0.125873 0.15612262
000320 ab 8f 5c 3d 9c 8f a0 3d 98 ca 99 3c 1e 86 97 bc
       0.05384795 0.07839891 0.018773362 -0.01849657
000330 c8 41 fe 3c e2 de 88 3d 4d 91 cb 3d 0e f2 6a bd
       0.031037226 0.066831365 0.09939823 -0.057359748
000340 4d 96 7f bd 99 95 c2 3a 8d a6 81 bd 80 3d b6 bd
       -0.062399197 0.0014845609 -0.06330595 -0.08898449
000350 b1 87 81 3d 42 ed 2f bd 45 e8 9d 3d b7 7a b4 bc
       0.06324709 -0.042950876 0.077103175 -0.022031171
000360 b9 88 5f 3d 5c 49 05 be 78 be 3e bd a5 2c 05 bc
       0.05457375 -0.13016266 -0.046568364 -0.00812832
000370 f1 d0 34 bd cc 20 64 3d ea 9d 72 3d 5c ae a4 3d
       -0.044144575 0.05569534 0.05923263 0.08041069
000380 77 1c 85 3d 8d db 0f 3d 6f a0 34 3d b4 bc 42 3d
       0.0649957 0.03512149 0.044098314 0.047543243
000390 5e 3e 47 39 4b 34 b6 bd a3 7e 94 3d f6 bd a9 bd
       0.00019001352 -0.08896693 0.072507165 -0.08288185
0003a0 ac 7c 7c 3d ff 18 b2 ba c0 0d d3 bb 2f e7 ed 3d
       0.061642334 -0.0013587772 -0.006440848 0.116163604
0003b0 16 35 97 bd 8a 6a bc 3d 4a 09 a6 3d 6e 7c 80 bc
       -0.07383172 0.09200008 0.081072405 -0.015684333
0003c0 1d b4 a3 bd 97 1f d1 bd 4a 1b a7 3d aa 2f 33 bc
       -0.07993338 -0.102111034 0.08159502 -0.010936657
0003d0 e9 cc dc bd 61 4e 13 bd c6 8c 78 3d 2f a9 e1 3b
       -0.10781271 -0.03596342 0.060681127 0.0068866233
0003e0 e1 ff 00 be 5a 0c a7 3c 79 05 15 be b1 ec c8 3d
       -0.1259761 0.020391632 -0.14552869 0.0981077
0003f0 7b 1f 4a 3d 11 c9 83 bc 0f 1e 88 3d 69 4a f8 bd
       0.04934643 -0.016087087 0.06646358 -0.121235676

rnn.rnn_cell.weight_hh f4 [64, 64]
000000 83 0c f5 3d 52 2d d3 3b 23 d8 30 3d 3f 8f a8 bd
       0.11965277 0.0064446116 0.043174874 -0.08230447
000010 37 f1 12 be 31 8f 41 3d 1f 9e 0f bd 4f 0e 20 3e
       -0.14349829 0.0472557 -0.035062905 0.15630458
000020 28 21 ab bd d5 f8 2c 3e 7e 32 03 3d 77 5d 19 bd
       -0.083559334 0.16891797 0.032030575 -0.03744265
000030 30 2f a3 bd 05 3d 08 3d d8 a0 13 3e 81 f3 2f 3e
       -0.07967985 0.033261318 0.14416826 0.17182733
000040 4b 28 4c bc 05 f2 d3 3d fd c7 0e 3e 2b 10 8e bb
       -0.0124607785 0.10348896 0.13943477 -0.0043354235
000050 d4 2c eb 3b 52 2c 0b 3e e6 ad 14 bd e0 ce 97 bd
       0.007176975 0.13591126 -0.036298655 -0.07412505
000060 b2 4e 99 3d b6 80 a7 39 70 ce 07 be a0 51 73 3d
       0.07485713 0.0003194862 -0.13262343 0.059404016
000070 3a 1a 9b bd 37 1c 26 3e c6 1c b6 bc 67 18 90 3c
       -0.07573362 0.162217 -0.022230517 0.017589761
000080 1d dd 06 be 63 fb e7 3d fa 4d 98 3d f5 64 1e be
       -0.13170286 0.11327245 0.07436748 -0.154682
000090 fe c3 af 3c 25 a5 49 3e d6 c8 1b 3d 33 1b b8 bd
       0.021455761 0.19691904 0.03803333 -0.08989563
0000a0 a0 48 3e 3d 6c 5a bc bd 84 4d db bd 66 e4 aa 3d
       0.04645598 -0.09196934 -0.10708144 0.08344345
0000b0 24 be 11 3e f9 a8 6a bd 02 2b 9f bd c0 00 a3 bc
       0.14232689 -0.05729005 -0.07771875 -0.019897819
0000c0 0d 09 eb bd f3 e6 45 bd 95 aa f4 bd c8 0c 0b 3d
       -0.11476336 -0.048315953 -0.119465984 0.033947736
0000d0 0c 60 ed bd 3e 3e cf 3d 6d 71 8d 3d 0b 4b a8 bc
       -0.11590585 0.10119294 0.069064 -0.020543596
0000e0 98 f8 08 3d 9c 0c 72 3e e3 fb aa 3c 84 99 f9 3d
       0.033440202 0.23637623 0.020872062 0.12187484
0000f0 24 fb b0 bd f6 db ca 3d fd 74 8a 3d 66 d5 67 bd
       -0.08641651 0.099052355 0.06760595 -0.056599997
000100 46 ad 8e 3d 70 e4 cd bd b3 aa 21 3e 14 79 95 3d
       0.06966643 -0.100533366 0.15787773 0.072984844
000110 b6 c7 df 3c ed 6a 90 bc 10 1c 1a 3e ed c8 ca 3d
       0.02731691 -0.017629111 0.15049767 0.09901605
000120 77 28 0f 3e 56 62 af bc 59 ef 6c bd da 46 34 3d
       0.1398028 -0.021409195 -0.057845447 0.04401288
000130 0e d0 12 3e 45 1b e9 bd 8f af 3d 3e 20 79 04 3d
       0.14337179 -0.113821544 0.18524002 0.032342076
000140 84 0e 13 3e 19 95 15 bd af 9a 04 be 2f b8 89 bd
       0.14361006 -0.036519144 -0.12949632 -0.06724583
000150 e5 ff 4e 3c b0 21 41 be ac 93 43 3c 06 b2 a6 bd
       0.012634252 -0.18860507 0.011937063 -0.08139424
000160 e8 d2 00 3c e3 3d 60 3b a6 fb 88 bd e5 c9 0c 3e
       0.007862784 0.0034216575 -0.06688623 0.13748892
000170 18 c0 c1 3d c2 7c c4 bc d6 c0 d5 3c c1 8f 96 bc
       0.09460467 -0.02398527 0.026092928 -0.018379094
000180 b6 78 d8 bb da 70 8e bb 05 f9 4d 3e c4 77 20 3e
       -0.0066061867 -0.004346949 0.20114525 0.15670687
000190 33 14 c8 3c 91 12 05 3c 10 c1 77 3d df 26 a0 3d
       0.024423694 0.008122102 0.060486853 0.07819914
0001a0 d7 f8 c9 3d a0 5a 29 3d e2 0a 90 3c 85 25 11 be
       0.098619156 0.041346192 0.017583314 -0.14174469
0001b0 cd d8 14 bc 8a 5d f6 bd 53 81 a6 bb 34 01 1d 3e
       -0.009084892 -0.1202956 -0.0050813346 0.1533249
0001c0 99 0e 97 3c 32 41 54 bd 6a 35 87 3b db 99 14 bd
       0.018439578 -0.051819988 0.0041262405 -0.03627954
0001d0 bd d6 ac bc ca 4b 79 3b a5 a0 a3 bd fb 70 37 bd
       -0.021098489 0.0038039559 -0.07989625 -0.04478548
0001e0 83 f1 72 bd da 72 ad bd ee 9b d8 bc 28 d1 ea bc
       -0.059312355 -0.08469172 -0.02644154 -0.028664187
0001f0 a8 b4 a9 bc 9e 80 4a be 17 e3 74 3b 60 fc 90 3d
       -0.020716026 -0.19775626 0.0037366801 0.07079387
000200 cc 71 c3 bc cc ce cf bd 2c 3f 72 bd f6 e0 2f 3c
       -0.023857974 -0.10146865 -0.059142277 0.010734787
000210 24 db 3b be 41 6f 0d 3b 94 35 60 3c a2 47 8c bd
       -0.18345314 0.0021581205 0.013684649 -0.068496004
000220 47 35 1a bc cc f2 8d 3d c2 b3 5c bc 71 5d 43 3e
       -0.009412116 0.069310755 -0.013470592 0.19078614
000230 f4 73 03 3d ec fd e0 bc b7 4d bc bd 8a 90 56 bb
       0.032093003 -0.02746483 -0.091945104 -0.003273996
000240 9a 5c 93 bc b9 aa fe bd 4e c2 aa 3c fe 59 9a 3d
       -0.017988492 -0.124349065 0.020844605 0.07536696
000250 49 f1 74 3d d3 7e b9 bd 86 44 9e 3d af b5 c8 3d
       0.05980042 -0.09057393 0.077279136 0.098002784
000260 61 88 09 be 2c 93 8c bd a7 44 ac bc fc 54 c3 3d
       -0.1343093 -0.06864008 -0.02102883 0.09537694
000270 11 cb e8 3c 86 f3 29 3d 56 e4 ed 3d 35 0c 2a be
       0.028417142 0.041492008 0.11615817 -0.16606219
000280 d5 62 52 bc 70 f0 0e 3d 0a 06 67 bd ef 9d f1 3d
       -0.012840946 0.034897268 -0.056402244 0.117977016
000290 e9 94 d2 3d ae 10 c0 3d 22 1d d0 3c 04 69 5a bd
       0.102823086 0.093781814 0.025404517 -0.053322807
0002a0 bf 7b f9 3d 51 e0 78 3c 32 7c 80 3d 71 ce 73 bd
       0.12181806 0.0151902 0.062736884 -0.05952305
0002b0 67 19 82 3d db 8a ee bd 1b e8 d6 bd 78 55 1d 3d
       0.06352501 -0.11647578 -0.10493489 0.038411587
0002c0 c5 59 01 bc d3 b8 e9 3b e0 4d cd bd f1 30 0d 3e
       -0.007894938 0.0071326285 -0.10024619 0.13788201
0002d0 0a 22 d2 bd 84 2e b3 3d a2 9b 6a bc d3 a5 ca 3d
       -0.10260399 0.087491065 -0.014319332 0.0989491
0002e0 d2 08 04 3e b7 7d 26 bd 14 18 15 3c e0 d9 d3 bd
       0.1289399 -0.040647235 0.009099979 -0.10344291
0002f0 fd dc c8 bc 52 33 da 3c ee 0b fc 3c b2 45 a0 bd
       -0.024519438 0.0266358 0.030767407 -0.07825793
000300 ad c2 20 be 66 9b c8 bb e7 c7 0e 3e 39 cd 82 3c
       -0.15699263 -0.0061220406 0.13943444 0.015966998
000310 71 1d 4b 3e 50 b8 4d 3d e4 86 8d 3e 85 cd 08 be
       0.1983545 0.050224602 0.27641976 -0.1335965
000320 07 9e 5f bd 28 ad 81 bb a0 e6 e3 bd f5 10 64 3d
       -0.054594066 -0.0039574094 -0.111279726 0.055680234
000330 c9 51 05 3d f0 ea bf 3d 19 94 04 3e 3b e9 8f 3c
       0.0325487 0.09370983 0.1294712 0.017567268
000340 d3 85 1c 3e f1 e1 59 3d 8b 4b e8 bd 59 9e 72 be
       0.15285425 0.05319399 -0.11342534 -0.23693217
000350 2e bf c3 bd f1 ee a3 bd 25 11 ba bd 89 e8 9d bd
       -0.09557949 -0.08004559 -0.09085301 -0.07710368
000360 82 4c 54 be 3f e0 53 3e 81 99 2e 3e 00 84 8e bc
       -0.2073231 0.20691012 0.17050745 -0.017396927
000370 3e 52 07 3b 78 4f 1c 3d 1b 67 4d be 8e 94 94 3d
       0.0020648385 0.038161725 -0.20058863 0.07254897
000380 a5 0f 74 bd 52 12 e5 bd bc 3f 23 3e e8 8a 83 3d
       -0.059585232 -0.11185135 0.15942281 0.06422979
000390 e5 9d 3c 3e 68 c7 b8 bd 51 97 10 3d d4 86 57 b9
       0.18419607 -0.09022409 0.035300557 -0.00020554225
0003a0 06 72 23 3d 37 2d db bc fe 55 c4 bc 56 f9 5c bd
       0.039903663 -0.026754959 -0.023966786 -0.053948723
0003b0 ee 04 45 be a5 57 55 bd a9 23 0f bd 1b c7 60 3d
       -0.19240162 -0.052085537 -0.034946118 0.05487738
0003c0 91 9d dc 3d 81 0d 51 3d 47 36 ae bd ad 53 0b 3e
       0.10772241 0.05103827 -0.08506446 0.13606139
0003d0 9c 79 17 be 74 da bc 3d 00 5c b8 3d 03 c6 90 b9
       -0.14792484 0.09221354 0.090019226 -0.0002761335
0003e0 46 20 03 be 5c b0 78 bc cc 3b 19 be 66 b9 8b 3c
       -0.1280528 -0.015178766 -0.14964217 0.017056178
0003f0 6f 6c 66 3e 74 69 6b be ad 95 8b bc f4 c7 02 3d
       0.22502302 -0.22989446 -0.017039144 0.03192897

rnn.rnn_cell.bias_ih f4 [64]
000000 dd 14 99 bd cb a4 d9 bd 1d 88 ea bd 13 18 cb 3d
       -0.074746825 -0.10627135 -0.11451743 0.09916701
000010 ca fe 9c bd ef e1 22 bd 64 0f c7 3c 25 0e b8 bd
       -0.07665785 -0.03976625 0.024299331 -0.08987073
000020 50 b3 9e bd 2e ea a3 3d f3 c3 e7 3c b6 fc 36 3d
       -0.07749045 0.080036506 0.028291678 0.044674598
000030 ed 48 d4 3d 13 31 35 3d 2e dc 55 3d 7f 1d b9 3c
       0.10365472 0.044236254 0.052211933 0.022597073
000040 5d 10 3c bd 37 e6 c5 bd d9 cd b0 bd 31 1e 87 bd
       -0.045914043 -0.096630506 -0.08633012 -0.065975554
000050 23 f7 82 bd 02 57 e2 3d b0 d9 27 3c c8 3f f0 bd
       -0.06394794 0.11051752 0.010244772 -0.11730915
000060 81 eb 5b 3d bb e4 f1 bd 18 46 8c 3d 35 77 b3 bd
       0.05369139 -0.11811205 0.06849307 -0.08762971
000070 18 3a cc bd e0 58 b4 3c 80 a7 26 be b5 9e 6f bc
       -0.09972018 0.022015035 -0.16274834 -0.014625241
000080 8d cd bc 3c 46 22 8d 3d de b1 17 3d a7 c1 22 3d
       0.023047233 0.06891303 0.03703486 0.039735463
000090 2a bc 94 3d 82 08 e6 3d 2a 4e 5a bd 17 0e 6b bb
       0.07262452 0.112320915 -0.0532972 -0.0035866552
0000a0 4c 36 a1 bd 98 a6 93 3d ce ed b1 3d ab 3d 14 3d
       -0.078716844 0.072095096 0.08687936 0.036191624
0000b0 0a 52 b9 3c a3 73 08 bc b8 a9 c2 bd f0 2c 80 3d
       0.022622127 -0.008328351 -0.095050275 0.06258571
0000c0 51 c7 0f bd 85 4f d0 3c 61 cc f7 bd 8a 26 40 3d
       -0.035102192 0.025428543 -0.12099529 0.046911754
0000d0 26 a5 f5 bd 52 86 d3 bd 94 c0 e1 bd 88 de fb bc
       -0.1199439 -0.10328354 -0.110230595 -0.03074576
0000e0 da d9 95 3d 32 90 ee 3b 5d db 6b 3d 23 b5 e7 bd
       0.073169425 0.007280373 0.057582248 -0.11313846
0000f0 4a 3d 2e 3c 65 95 3e 3d 6c 17 7b 3c 5c c8 1d bd
       0.01063473 0.046529192 0.015325408 -0.038521156

rnn.rnn_cell.bias_hh f4 [64]
000000 00 67 c7 3c 81 b2 03 3d 6b 7e dc bd 2e d1 f3 3c
       0.024341106 0.032152656 -0.107663 0.02976283
000010 38 37 d1 3c 8e 6b 7a 3d 05 4b c6 bc 41 d6 9b 3c
       0.025539026 0.06113773 -0.024205694 0.019023063
000020 72 c8 97 bd 8e ec bc bd 38 2c 71 3d 6c 42 55 bd
       -0.07411279 -0.09224807 0.05888006 -0.052065298
000030 ad 59 16 bd 43 3a 5a bd ae d4 51 bd 0a ca e4 3d
       -0.036706615 -0.05327822 -0.051228218 0.111713484
000040 54 69 b0 3c 9d 8f 41 3d cf 14 61 3d 29 6e 00 3d
       0.0215346 0.0472561 0.054951485 0.031355057
000050 eb a4 c0 3d 8c e1 65 3d 82 c5 2e bd b6 fa 97 3d
       0.094064556 0.0561233 -0.042668827 0.07420866
000060 38 d5 d0 3d 37 08 e2 bd 6a 49 92 bd 57 af 99 3c
       0.10196918 -0.11036723 -0.07142909 0.018760366
000070 54 5f bc 3d b2 89 cc 3c 36 2e 98 3d aa cd ca bd
       0.0919787 0.024968002 0.07430689 -0.099025086
000080 d5 d6 ef bd 10 89 db 3d 06 7b 01 be 95 09 95 bd
       -0.11710898 0.10719502 -0.12644586 -0.07277218
000090 1a 91 b2 bd 5d 5a 0c 3e 2f ca ca 3d ef ba 0d bd
       -0.08719082 0.13706346 0.09901845 -0.034602102
0000a0 6e 40 d8 3d 54 83 f9 bd 92 39 81 bd 75 ff 8a bb
       0.10559164 -0.12183252 -0.06309809 -0.0042418786
0000b0 3c c2 82 3d 8e f1 d8 bd ff 41 ca bc 89 b9 b6 bd
       0.063847035 -0.10592948 -0.024689673 -0.08922107
0000c0 37 b1 85 3d e4 82 fa bd 11 21 b1 3c 1a ba db bd
       0.06527942 -0.12231997 0.021622213 -0.107288554
0000d0 58 7a 88 3d 2c 7a ce 3d e8 7b b4 3d c0 af 86 3b
       0.0666396 0.10081896 0.08812696 0.0041103065
0000e0 40 18 4f 3c 12 9f cd bc b3 3d d6 bd 39 70 f9 bd
       0.012640059 -0.025100265 -0.10460987 -0.12179608
0000f0 0b f2 6b 3d 2f 19 ec 3d 9e e1 80 3b b2 88 a6 bd
       0.057603877 0.11528241 0.0039331457 -0.08131541

fc1.weight f4 [64, 64]
000000 a8 be 28 bd 98 54 74 bd 7d c0 cd 3d 0f 8d fe bd
       -0.04119745 -0.059650987 0.1004648 -0.124292485
000010 f6 40 c3 3d 9b 1f 11 be 4a c5 07 be 12 63 01 be
       0.09533875 -0.14172213 -0.13258854 -0.12635449
000020 58 13 a4 bd 4b c7 15 bd df ff d4 bd 9e 19 7e 3c
       -0.08011502 -0.036567014 -0.10400366 0.015509037
000030 83 88 f8 3d 5d 33 05 be 61 21 62 3d c3 4f 0e bd
       0.121354125 -0.13007875 0.055207614 -0.034744035
000040 b7 9a 56 3c 94 ed 5c 3c 43 c8 b8 bd fc ce c4 3c
       0.01309841 0.013484377 -0.09022572 0.02402448
000050 62 9e 08 be 1b 1e 85 bd 09 4b 0a bc 03 cf f0 3d
       -0.13341668 -0.06499883 -0.008440741 0.11758234
000060 98 9b ab bc 75 97 4a 3d 05 16 03 bd d6 92 2f bd
       -0.020948216 0.049460847 -0.03200342 -0.042864643
000070 3b 13 70 3d 31 af d5 3c 68 c6 90 3c ae e0 0b be
       0.05861209 0.026084514 0.017672732 -0.13659927
000080 43 dc 36 3d 61 50 a9 3d 2b 25 d3 bc 89 05 95 3b
       0.04464365 0.08267284 -0.025774559 0.004547779
000090 23 da d0 3d 03 cd 16 3c 0a 8d 8c bc e5 e7 8f bd
       0.10197856 0.009204152 -0.017157096 -0.07026652
0000a0 bf 65 d8 bc e3 92 99 3d 9e ba 27 3d 37 d9 f5 bd
       -0.026415704 0.074987195 0.040949456 -0.12004321
0000b0 67 94 64 3d 9f 10 07 3e f5 62 3f 3d be 87 f8 3b
       0.05580559 0.13189934 0.046725232 0.007584541
0000c0 fd 5e 13 3e 20 e9 28 bc 65 cf 99 bd e6 b1 0d bd
       0.14391704 -0.010309488 -0.075102605 -0.034593485
0000d0 bb df 11 bd 25 13 5d 3d 05 2d 10 3d f5 1c 6f 3d
       -0.035613757 0.053973336 0.035199184 0.058377225
0000e0 00 4f 99 bd 82 05 52 3e 87 30 86 bd d8 dd 06 3e
       -0.07485771 0.20509914 -0.065522246 0.13170564
0000f0 f9 02 fb 3c 6f db c7 bd 53 cc ae bd 8c 14 88 3d
       0.030641066 -0.097586505 -0.085350655 0.06644544
000100 06 1c 6f bd a0 f1 02 3e b9 29 cc bc dc 78 60 3d
       -0.058376335 0.12787485 -0.024922239 0.05480276
000110 16 6b a0 3d 99 cc ba bd 7a f0 a3 3d 19 95 17 bd
       0.07832925 -0.09121055 0.08004852 -0.037007425
000120 2f 40 08 bd 45 30 cb bd 7b 0c 0f 3e 37 b2 8b bd
       -0.033264335 -0.09921316 0.13969605 -0.06821101
000130 7b 58 cf bd 59 ac 18 3e d4 f7 0f bc 3e 7b 3a 3d
       -0.10124298 0.14909495 -0.008787114 0.04552769
000140 f7 24 05 3e 4d df 8c 3d 48 34 1a 3e b2 ad c7 bd
       0.13002382 0.06878529 0.15059006 -0.097499266
000150 48 0f 42 bd 79 29 e0 3d 08 79 ba 3d 48 b4 b9 3d
       -0.047377855 0.1094541 0.09105116 0.09067589
000160 74 a2 2b 3e 97 a1 73 bd b3 6a 5e bc ac 46 20 bd
       0.1676119 -0.059480276 -0.013575244 -0.039129898
000170 46 c5 29 3d 45 ad 9e 3d 00 7a a7 3d db 52 37 3d
       0.0414479 0.07747892 0.081775665 0.04475675
000180 b9 68 c9 bc 90 8d aa 3d 6a a0 a8 3b 82 94 12 be
       -0.024586068 0.08327782 0.005146076 -0.14314464
000190 30 d0 d5 3c 0c 68 de 3c 05 2c 49 bd 4a db f1 bd
       0.026100248 0.027149223 -0.049114246 -0.11809404
0001a0 f8 2c 79 bd 04 a7 c2 bd e7 f3 60 3c 06 10 b3 3d
       -0.0608339 -0.09504512 0.013730026 0.087432906
0001b0 be 12 d3 bd 20 97 d4 3d 2c a9 df 3d 19 43 93 3b
       -0.10306309 0.10380387 0.10920939 0.0044940826
0001c0 58 2e 69 bd 72 3b a9 3d e2 cc 99 3c 33 df df 3d
       -0.056928962 0.082632914 0.018774454 0.10931244
0001d0 a4 af a9 bc 24 15 61 bc 83 5e bc bd 9a 92 1a bd
       -0.020713635 -0.0137379505 -0.09197714 -0.037737466
0001e0 3b 2a 00 be 68 7a 0a bd 10 78 f6 bc 76 51 05 3d
       -0.1251611 -0.033808142 -0.030086547 0.03254839
0001f0 18 b9 f5 bd ad fd ae bd 26 0c ad bd f8 6c 9e bd
       -0.119981945 -0.085444786 -0.08449583 -0.07735628
000200 0c ea 32 bd e6 ee 63 3d f2 95 d1 3c 25 fc d1 bd
       -0.043680236 0.055647753 0.025584195 -0.10253171
000210 af b6 82 3c 19 af a9 bd f2 23 e0 bd cc 62 1d 3e
       0.015956251 -0.0828535 -0.10944356 0.1536972
000220 02 5a f8 3c 68 80 16 3e 25 fc 1f 3e 37 33 65 bc
       0.030316357 0.1469742 0.1562353 -0.013989261
000230 65 c8 60 bd 05 3b e5 bd 11 d3 d9 3d 1f 49 ac 3c
       -0.05487861 -0.11192898 0.10635961 0.02103096
000240 f8 61 8e bd 1b fb 34 3d 46 ff a6 bd 7c 2e 84 bd
       -0.0695228 0.044184785 -0.08154158 -0.06454179
000250 2b 89 62 bd 7f f9 15 be 21 81 04 3e de a4 c7 3c
       -0.055306595 -0.14645956 0.12939884 0.024370607
000260 38 7e 22 bd ff 94 33 3d 78 cc 08 3e c8 fa 12 3c
       -0.039671153 0.043843266 0.13359249 0.008970924
000270 05 4c 03 be be 2a 28 bc 46 90 37 3d 15 b7 96 bc
       -0.12821968 -0.010264097 0.044815324 -0.018397847
000280 c3 da ec bd b6 eb 7c bd 7f ad 20 3e a2 df 61 3d
       -0.11565163 -0.06174823 0.15691184 0.055144913
000290 e5 85 7a bd 8d cc 07 3e 23 1f 7c 3c ef cc 20 bd
       -0.061162848 0.13261624 0.015388283 -0.03925794
0002a0 51 a0 56 be c5 11 3d 3d 22 e6 93 bd 63 44 00 3e
       -0.20959593 0.046159524 -0.07221629 0.12526087
0002b0 aa 1a 99 bd 2b 1a 18 3e 93 14 72 bd a2 0f 9d bc
       -0.07475789 0.14853732 -0.059101652 -0.019172493
0002c0 55 d0 58 be b2 6d 91 ba c7 a9 ec bd 29 77 fa bd
       -0.21173222 -0.0011095314 -0.1155582 -0.12229759
0002d0 eb 12 94 3d a9 0c fc bd 80 e8 bf 3d e0 f2 04 be
       0.07230171 -0.12307102 0.09370518 -0.12983274
0002e0 f5 97 f3 bd 0d c2 29 3e 00 a8 34 3e 5c 49 dc bd
       -0.11894218 0.16577931 0.17642212 -0.1075618
0002f0 98 fc 29 be bd 3a cc b8 ed 80 b3 3d 95 e6 8e bd
       -0.16600263 -9.738419e-05 0.08764825 -0.06977574
000300 42 2f 8b 3d 08 a2 0c bd 15 1e 71 3d ae a1 9a 3d
       0.06796123 -0.034334213 0.05886658 0.07550369
000310 ce 79 03 3d 91 89 85 3d 63 e6 21 3c cb e5 68 3d
       0.032098584 0.06520379 0.009881589 0.056859773
000320 ed 54 91 bd c4 c1 17 be 69 5b 33 3e 90 b9 b4 bd
       -0.070962764 -0.1482001 0.17515339 -0.08824456
000330 e3 0a 06 bd 4d 7b ae bd cc f2 f1 bc a3 6f b8 bd
       -0.032725226 -0.085196115 -0.02953472 -0.09005668
000340 05 d9 60 be 20 09 ec bd 5d 52 b4 bd e9 c7 43 3e
       -0.21957786 -0.11525178 -0.08804772 0.19119228
000350 2b b9 f1 bc bc a8 17 bc 04 ee 81 bd a4 38 ee 3c
       -0.02950724 -0.009256538 -0.06344226 0.029079743
000360 2b 68 77 3d 19 eb 08 be 22 40 e4 3d 1c 86 53 3d
       0.060402077 -0.13370933 0.11145045 0.05164157
000370 1d 93 8d 3d 8f 20 53 3c 29 02 0f bb 04 5b 1f 3d
       0.06912825 0.012886181 -0.0021821356 0.03890516
000380 0e b9 b5 3b d0 44 b3 bc 57 02 8d bd d2 49 d8 3d
       0.005545742 -0.021883398 -0.06885212 0.10560955
000390 83 cb e2 3d ef 61 14 3d 24 24 30 bb 9d be 80 bd
       0.11073973 0.03622621 -0.002687701 -0.062863566
0003a0 5d d2 67 3d be c1 79 3d be 8d 82 3d d0 08 8c bd
       0.056597102 0.060975783 0.063746914 -0.06837618
0003b0 88 80 ea bd 70 ef 32 3d 09 e6 50 3d 93 65 44 3d
       -0.11450297 0.043685377 0.05100063 0.04794843
0003c0 1c d2 32 bd 73 b8 69 3e 28 35 29 bd 23 44 4d 3d
       -0.043657407 0.22824268 -0.04131046 0.05011381
0003d0 c4 1d 08 be c4 af d8 3d 8b 4b 42 bd c7 3b 90 bc
       -0.13292605 0.105804 -0.047435325 -0.017606629
0003e0 78 e4 3f bd 02 86 a9 bd 27 fd 47 be 6b 66 a5 bd
       -0.046848744 -0.08277513 -0.19530164 -0.08076175
0003f0 b6 06 47 bd ca 51 32 be bd 3f be bd 4f cf dd 3d
       -0.048590384 -0.17414013 -0.09289501 0.108305566

fc1.bias f4 [64]
000000 36 b2 85 3c 36 0b 82 3c be fc 01 bd e8 7d c5 bd
       0.01632033 0.015874486 -0.031735174 -0.09643155
000010 6e 23 8f 3d 28 dc 4b 3d 19 a7 13 3d e4 ed b9 3d
       0.069891796 0.049770504 0.03604803 0.09078577
000020 0e ce 9a 3b 96 2f 88 3c fc 88 a5 bd fa ac 88 bc
       0.0047242707 0.016624253 -0.08082768 -0.016684044
000030 a1 6b e4 3c ee 2b f5 3d d6 58 ca 3d f3 eb f5 3d
       0.027883353 0.119712695 0.09880225 0.12007894
000040 f6 91 ca 3c d4 85 ba bc d6 f8 30 bc fe 7d 3b bd
       0.024727803 -0.022768892 -0.010801515 -0.045774452
000050 91 4e f3 3d 66 33 bc 3d d2 08 0c bd 11 49 9c bd
       0.1188022 0.09189491 -0.0341881 -0.07631124
000060 2f 19 28 3d 52 13 fb bd 88 93 28 bd 7c ed fa 3d
       0.041039642 -0.122595444 -0.04115632 0.12252328
000070 f9 34 dc 3d d6 70 43 bd 5a 89 fb 3d b5 69 13 3e
       0.10752291 -0.04771503 0.12282057 0.14395793
000080 6f 94 1e 3e 86 d1 06 3d 61 59 ba 3d 05 0d f1 3d
       0.1548631 0.03291466 0.09099079 0.117700614
000090 ab 6d 80 bc 99 40 8f bd 79 09 22 3d 83 0c 04 3e
       -0.015677294 -0.06994743 0.039559815 0.12895398
0000a0 7a f9 8e 3d 4b 8d 7f bd 07 27 e6 3c e1 4b 67 3c
       0.06981178 -0.062390607 0.028094782 0.014117212
0000b0 6a 5d 0a 3d af 5e a2 3d 1b 11 35 bd 51 b6 d2 3d
       0.033780493 0.07928216 -0.044205766 0.1028868
0000c0 09 91 69 3d e4 90 69 bd 1e b5 9a 3d 0d 46 48 bc
       0.057023082 -0.057022944 0.075540766 -0.012223733
0000d0 5d 5d 48 bd 11 c9 22 bd ed 6d 94 3d dc bf 63 bd
       -0.048917163 -0.039742533 0.07247529 -0.055602893
0000e0 2a 5e e4 bd c7 2e b4 3d 08 56 16 bc 82 0c 88 3d
       -0.11150773 0.087979846 -0.009175785 0.06643011
0000f0 ec de 9d bd 4f b3 b1 3d 96 54 9c bd 48 e6 c5 bc
       -0.077085346 0.086767785 -0.07633321 -0.024157658

fc2.weight f4 [18, 64]
000000 17 3b a1 bd 35 1c 5b 3e 92 ef 4f 3c 8c 6c 0e 3e
       -0.078725986 0.21397479 0.012691395 0.13908595
000010 43 c0 3a be 3f 2d e1 3d 0f fe bf bd 9f 0c 6c be
       -0.18237405 0.10994958 -0.0937463 -0.2305169
000020 81 b9 57 3d 0b a2 ae 3d 5f f0 d7 bd ac 55 8c 3d
       0.052667145 0.08527001 -0.10543894 0.06852278
000030 fc ef 06 bd 71 90 ef 3c 12 60 ac 3c 17 dd e3 3c
       -0.03294371 0.02924368 0.021041904 0.027815385
000040 cf e9 da 3d 0d c1 61 3d 87 22 9e bd ad 51 ba bd
       0.10689127 0.05511575 -0.07721429 -0.0909761
000050 8f 1d a4 bd 4a 58 07 3d 18 64 88 bc 9f 85 4a be
       -0.0801345 0.033043183 -0.01664929 -0.19777535
000060 4b 1d 6e 3d 24 96 ef bb ce a6 2f 3e 88 c1 dc bd
       0.058133405 -0.0073115993 0.17153475 -0.10779101
000070 34 2f 33 be 0c 4c 46 3d d9 61 99 bd 7a 41 e0 3d
       -0.17498475 0.048412368 -0.07489366 0.10949989
000080 25 20 b4 3d b0 3e a4 bc 4b ce c4 3d b0 53 c5 3d
       0.087951936 -0.020049423 0.0960966 0.09635103
000090 d2 9c a3 ba 8d e4 a7 3d b4 69 52 3d 59 fb 07 bc
       -0.0012482649 0.081978895 0.051370338 -0.008299672
0000a0 42 9c b9 3d d5 d0 65 bd 96 d1 3e 3c 09 8b 1c 3d
       0.09063007 -0.05610736 0.011646649 0.03821853
0000b0 31 f9 b8 3d a0 72 2e bd 13 7d a5 bd b2 d8 d9 3d
       0.090319045 -0.042589784 -0.08080497 0.106370345
0000c0 fa 11 d5 bd 37 13 90 bd 42 73 14 be 6e 4e 34 3d
       -0.104038194 -0.07034915 -0.14497092 0.04402011
0000d0 23 2f f4 bd af d4 c1 bc f8 ef 04 bc 0e ab 05 be
       -0.11923053 -0.023660986 -0.008113854 -0.13053533
0000e0 bb f4 29 3e 4f 6a ce 3d ef 89 8f bd 12 7a 37 bd
       0.16597264 0.100788705 -0.070087306 -0.04479415
0000f0 08 54 3f bd 37 70 d9 bc 3f 21 23 3c 29 a2 81 bd
       -0.046710998 -0.026542766 0.009956657 -0.06329758
000100 41 d4 01 3e e2 7a a5 bd 34 fe 03 be 86 69 fd 3d
       0.12678625 -0.08080079 -0.1288994 0.123736426
000110 d3 d6 0d be 8d 04 2d 3d 2c bc dd bd 8c a9 03 3e
       -0.1385148 0.042240668 -0.108269066 0.12857646
000120 23 74 54 be d3 ba 11 be ac 4a e0 3d d0 09 3e bc
       -0.20747428 -0.14231424 0.109517425 -0.011599019
000130 b7 1e 00 be a1 f7 19 be 82 97 14 3d 7d 12 18 bd
       -0.12511717 -0.15035869 0.0362773 -0.037127007
000140 bc 6c da bc f9 2f ce bd b9 61 5b be 56 d3 7e be
       -0.026663177 -0.10067744 -0.21423997 -0.24885306
000150 8b ad 5c bc 3b 92 c0 bd 96 4e 68 3d b1 f5 80 bd
       -0.01346911 -0.09402891 0.05671557 -0.06296862
000160 2a e7 f6 bd 03 97 23 be 80 f1 22 be d3 ae 44 3d
       -0.1205581 -0.15975575 -0.15912437 0.048018288
000170 80 fc 9e bd 73 4d ab 3d 32 00 08 be ec e9 2f be
       -0.07763004 0.08364382 -0.13281325 -0.17179078
000180 ba fa 00 be c2 e0 90 3d 6c 18 92 3d 13 f1 68 bd
       -0.12595645 0.07074119 0.07133564 -0.05687053
000190 13 43 7a 3d ee e9 d4 bd b5 e3 ac bd 19 6b fc 3c
       0.061099123 -0.10396181 -0.08441869 0.030812787
0001a0 64 98 f9 bb 4d d6 73 3d f6 94 76 bd c9 46 3b 3d
       -0.0076170433 0.059530545 -0.060200654 0.045721803
0001b0 e7 3f c1 3d a2 e0 35 3d d4 ad 0f 3e ac cb 85 3d
       0.094360165 0.04440368 0.14031154 0.06532988
0001c0 89 7a 14 be 7e 53 07 3a 14 71 1a 3d b7 09 cc 3d
       -0.14499868 0.00051622826 0.037705496 0.099627905
0001d0 ee 0a 71 be 48 0a 7e 3c 40 45 0f 3e a3 78 7e be
       -0.23539326 0.015505381 0.1399126 -0.24850707
0001e0 ad f6 93 3d 2c 9b 87 3d 04 ef 29 be fb 56 ce bb
       0.07224784 0.066213936 -0.16595083 -0.00629699
0001f0 a2 35 97 bd 8c 43 92 be 30 44 38 bd 20 e9 85 bd
       -0.073832765 -0.2856716 -0.044986904 -0.06538606
000200 e7 e0 d7 bd af 1c 4d bd 44 fa 2f 3e 38 3e d9 bc
       -0.105409436 -0.050076183 0.17185313 -0.026518926
000210 ec 28 71 bd dd ac 71 3c 50 45 95 3d 05 64 02 bb
       -0.058876917 0.0147506865 0.07288611 -0.0019896042
000220 cf b3 d0 3d 8c 69 ee bd f0 4f 4e bc b6 46 bc bb
       0.10190546 -0.11641225 -0.012592301 -0.005745734
000230 55 f9 87 bd ab e9 e6 3c 7e 61 6e bd 2b 98 28 3e
       -0.06639353 0.028187593 -0.058198445 0.16464297
000240 70 37 06 3e f4 e6 af 3d 0d a0 aa 3c 7f ca 3f bb
       0.13107085 0.08588973 0.020828271 -0.0029264984
000250 81 60 b7 3d ed 68 d9 3b 19 6d 10 3d 42 fb c3 bc
       0.089539535 0.0066348226 0.035260294 -0.02392352
000260 0b 5d 1f 3d 34 3b b8 3d 50 70 f2 3b c2 2f 32 be
       0.038907092 0.08995667 0.0073986426 -0.1740103
000270 c0 57 99 3d 94 6f 1c be 50 2c 74 bd 7d 02 bd 3c
       0.0748744 -0.15276939 -0.059612572 0.023072476
000280 e4 a9 aa bc 43 50 c2 bb cb 47 a3 bd ef aa 74 3d
       -0.020832963 -0.005929978 -0.07972678 0.059733327
000290 37 b7 ad bb 6e 33 d6 bd 2e ea 07 3e 67 0c 13 3d
       -0.005301382 -0.10459028 0.13272926 0.0359005
0002a0 e2 46 ca 3d fc ef f4 bc 96 a0 cf bd e2 55 96 bd
       0.09876801 -0.02989959 -0.10138051 -0.073405996
0002b0 83 ae 59 bd 56 10 05 be 11 96 5d be c7 15 db 3c
       -0.053144943 -0.12994513 -0.21639277 0.026743783
0002c0 cf 40 23 3e 74 e4 e2 3d c1 5a 24 be 21 5b db 3c
       0.15942691 0.1107873 -0.16050245 0.026776852
0002d0 38 b8 b8 ba df 5b 10 bc 06 37 ff 3b 26 17 d6 bd
       -0.0014092987 -0.008810966 0.0077885417 -0.10453634
0002e0 7d b8 12 bd 09 45 4a 3d af 23 d2 3c 4b 30 2a bd
       -0.035820473 0.049382243 0.02565178 -0.041549962
0002f0 22 5f 5e bd ed 46 a9 3d 1c e2 35 bd 63 32 ee 3d
       -0.054289944 0.08265481 -0.044405088 0.11630704
000300 17 19 88 3c e6 f8 14 be 04 f4 47 bd 54 9e ab bd
       0.016613526 -0.14548072 -0.048816696 -0.08379808
000310 20 ce 91 bd 7a 42 97 bc 6f c8 2d 3d 56 36 9d bd
       -0.07119393 -0.018464316 0.042427476 -0.076763794
000320 60 0f 82 3d a2 44 24 3b ae 4d 37 bd 2a b2 ba bd
       0.06350589 0.0025065322 -0.044751815 -0.09116013
000330 7f 12 38 3d b7 d7 b9 3d 6e a0 1d be 22 51 98 3c
       0.044939514 0.090743475 -0.1539323 0.018593375
000340 95 43 5d 3d 4a c9 3b bd ed c7 d0 3d 3c 1b 17 3e
       0.05401953 -0.04584626 0.10194383 0.14756483
000350 fc c0 bc bd 59 48 e1 bd 18 97 10 be 64 81 8d bc
       -0.09216496 -0.11000127 -0.14120138 -0.017273612
000360 e3 0a e4 bd f3 a9 21 bd c0 13 88 3d 81 48 ba be
       -0.11134889 -0.039468717 0.06644392 -0.3638344
000370 b4 fc 9c 3d 85 1e 48 bb 61 c7 b1 bd 28 c8 89 3d
       0.07665387 -0.003053577 -0.08680607 0.0672763
000380 cf cd 2f bc 92 7f ff bd d5 78 cc bc 97 9a 3e bd
       -0.010730221 -0.12475504 -0.024959961 -0.046534147
000390 f1 ee 99 bd f2 33 e4 bd 4b d9 65 bd 5b 77 1d 3e
       -0.075162776 -0.1114272 -0.05611543 0.15377562
0003a0 8f bd c0 3d a2 2c b2 bd 1f fa bf bc 3f de 53 bd
       0.094111554 -0.08699919 -0.023434697 -0.051725622
0003b0 c6 3a 55 bd a5 c5 d6 bd 88 dd 22 be 6d e7 a1 3d
       -0.052058004 -0.104869165 -0.1590482 0.07905469
0003c0 98 0e 50 bd ff de 19 bc 6d c6 e2 bc 6e 28 77 bc
       -0.050795168 -0.009391545 -0.027682507 -0.015085323
0003d0 e2 e3 23 3c 26 61 60 be de c0 b3 3d 02 f6 e0 bc
       0.010003062 -0.21912059 0.08777021 -0.027461056
0003e0 d4 48 2d bd 80 bc 5f bd a2 a8 5d bb ef 6f 3e 3d
       -0.042305782 -0.054623127 -0.0033822437 0.046493467
0003f0 36 f2 34 3d d6 0c 2e 3d e7 b4 c8 bd 4c 93 7e 3c
       0.044176303 0.04249271 -0.098001294 0.015538048

fc2.bias f4 [18]
000000 14 ff 3b 3d 52 f7 4d bc 69 36 e1 bd 90 66 ac 3b
       0.04589756 -0.012571173 -0.10996706 0.00526125
000010 85 fb 91 bd 52 e9 2d ba fe 98 90 bd ba 95 88 3d
       -0.07128052 -0.00066341937 -0.07060431 0.06669183
000020 48 0f 18 bd be cf 9f bd 08 fd 74 bc 0d 39 7f 3d
       -0.03712395 -0.078032956 -0.0149529055 0.062310267
000030 bc 26 00 bd 93 ba 9e 3d 8b cb 1d be 61 05 ae 3c
       -0.03128694 0.0775043 -0.15409677 0.0212428
000040 19 8f 18 3e 57 e6 ac 3d
       0.14898337 0.08442371
