RNN/model_storage/model.pth (torch, 51112 bytes, 8 tensors)

char_embedding.weight f4 [80, 32]
00000000: 0000 0000 0000 0000 0000 0000 0000 0000
00000010: 0000 0000 0000 0000 0000 0000 0000 0000
00000020: 0000 0000 0000 0000 0000 0000 0000 0000
00000030: 0000 0000 0000 0000 0000 0000 0000 0000
00000040: 0000 0000 0000 0000 0000 0000 0000 0000
00000050: 0000 0000 0000 0000 0000 0000 0000 0000
00000060: 0000 0000 0000 0000 0000 0000 0000 0000
00000070: 0000 0000 0000 0000 0000 0000 0000 0000
00000080: fecd c0bf 8b9e 4cbf b615 db3b 0701 b53f
00000090: 8ea7 a53e 515b 49bf abf5 193e dc15 d4be
000000a0: 15e3 dabf d5d1 a23f e94f 48bf 92da a3be
000000b0: 8b7f a8bf 1952 fa3f c168 a6bf 1f86 eebe
000000c0: facb 82bf 46a6 23bf 0268 82be 8b92 1b3f
000000d0: 80c5 0ebf d548 a83f 4f56 84bf a080 10bf
000000e0: 1e0e 96bf ef27 2bbe 446f c8be f859 453f
000000f0: 6737 a2be 3d40 c93f ad67 67bf d9f7 c73f
00000100: 2522 ee3f f7ff 9e3f e554 2240 7f42 4a3f
00000110: 245a 0c3f 7c6b 1abe 4ec6 b3bf b963 c73f
00000120: 1475 03bf 901f 4c3f fe64 9b3d f1ad d43e
00000130: f7da 6a3f 5e64 4fbf b855 20c0 f0bf 5ebf
00000140: d1ff 373e 3c96 94be e3b6 e5bf 72c6 5abf
00000150: cd8c 733f af22 2c3f 7e22 c73f ad48 90bc
00000160: 3ee4 3e3f be1d 06bf e3b1 b1bf 8a37 373f
00000170: 71ed 08c0 cbbd 86bf 51f6 c83f 3c69 0b3f
00000180: 609c 20c0 46db f93e afda 483f 81ad ea3c
00000190: 8a08 243f b44f 153f 0e91 883f 817a e6be
000001a0: c2b6 3dbe ceb4 403f 6a3c cf3e cabf 363e
000001b0: 38a2 873e 2ef7 a23f 49d1 abba f471 9bbe
000001c0: ee7f babf 2395 d1bd 1862 19bf bd40 f43e
000001d0: c0e6 393f d4ad ba3d 8e33 c7be 8925 073f
000001e0: c1d6 4fbc cc9d 763e 5ab7 073e 46a5 433f
000001f0: 4729 8c3f 3006 ae3e ca4f 383f 05a4 d23e
00000200: 3836 0540 ea4a 5b3f a505 b0bf bdd2 b1bf
00000210: 9a68 65bc e16e c13f b285 d13e 881e 0f3f
00000220: 38e7 633f aa8f 703e afbe 11c0 5264 823f
00000230: 108d 03bf 3cf3 8f3f 94c3 74bf f649 883f
00000240: dffb 5fbf 4709 8c3f 304c dd3f 8f67 833f
00000250: e325 68be 0970 24bf f753 78bf b8e8 1f3c
00000260: eb82 ee3e 3211 2a3f a859 35bf 1fc8 0340
00000270: d6fd 14c0 1cf6 d4be 889e 9ebf 2f12 903f
00000280: 6430 02c0 d81b 0d3f 8328 983e b5e2 aabe
00000290: 4a80 0e3e 5ea1 77bf 8265 3e3e 6a15 4dbf
000002a0: df28 f5bf dd0b c53f 8bb5 a43f 563f 9cbc
000002b0: 32bd cebf 82bf 663f 8cbd 163f 5264 0840
000002c0: 9780 b5bc 0e3b 643e 9b70 7cbf da6c f8bd
000002d0: 4e58 71bf 4873 d5bf d0b9 a0bf 309b bebe
000002e0: a794 9cbe 705e d3bf 0b0a 09c0 783a f33d
000002f0: fe56 913f 6cd1 46bf cd16 583f 2257 293f
00000300: 6c65 df3f f9f4 87bf 8612 2f3f d40c 1fbe
00000310: 9080 95bf 6e5a 173f aa28 5c3f fdad 8d3f
00000320: bddc 6a3f a953 0e40 e7d0 6cbf 8c15 8abf
00000330: 2592 533e a604 863f 560d a73f edef 6c3f
00000340: 4e0a 88bf a970 8fbf ece6 bcbe 7e39 0dbf
00000350: afae 3b3e 501f 883e 9cb3 bbbc 3ddb 10c0
00000360: f9e9 dabe de83 813f ddf3 b5bf 7129 f13f
00000370: f2fe f03e 3ead b1be afdc 843f 16ee ec3f
00000380: 42e2 6cbe 658b 0240 6362 f03e 688b a0bf
00000390: 94d6 0fbf 0909 9fbd f3c8 753e 9809 0c40
000003a0: b9ab 78be 9624 3abf 72ed 01c0 f19f 81bf
000003b0: 521c babd 98ba 1ebe 863d 4a3d ba6d de3e
000003c0: ff4f 7fbf dc2e ec3d 5ef2 3abf 41b5 0f3f
000003d0: f032 7abf d811 eabb b257 36bf 2786 d43f
000003e0: f77e bc3f 6fe2 7cbf dcd7 193f 2ed2 d53e
000003f0: bcc1 dc3e 6f35 a03e 7615 333f 94eb bc3e
0.0 0.0 0.0 0.0 0.0 0.0 0.0 0.0
0.0 0.0 0.0 0.0 0.0 0.0 0.0 0.0
0.0 0.0 0.0 0.0 0.0 0.0 0.0 0.0
0.0 0.0 0.0 0.0 0.0 0.0 0.0 0.0
-1.5062864 -0.7992942 0.0066859378 1.4140939 0.32354397 -0.7865496 0.15035121 -0.41422927
-1.710055 1.2720286 -0.78246933 -0.32002693 -1.3163923 1.9556304 -1.3000718 -0.465867
-1.0218499 -0.6392559 -0.25469977 0.6077048 -0.5577011 1.3147227 -1.0338839 -0.56446266
-1.1723058 -0.16714452 -0.3914739 0.77090406 -0.31682894 1.5722729 -0.9039257 1.5622512
1.860417 1.2421864 2.5364316 0.79007715 0.54825044 -0.15080065 -1.4044893 1.5577308
-0.5135052 0.7973566 0.07587622 0.41538957 0.91740364 -0.81012523 -2.5052319 -0.87011623
0.1796868 -0.2902087 -1.7946438 -0.85459054 0.9513672 0.6724042 1.5557401 -0.01761278
0.7456702 -0.5238913 -1.3882412 0.7156912 -2.1394923 -1.052667 1.570017 0.5445745
-2.5095444 0.48800105 0.78458685 0.028647186 0.6407553 0.5832474 1.0669267 -0.45015338
-0.18526748 0.75275886 0.4047578 0.17846599 0.2649095 1.2731683 -0.0013108636 -0.30360377
-1.4570291 -0.10233524 -0.59915304 0.4770564 0.7261772 0.09115186 -0.3890652 0.5279165
-0.012685479 0.24083632 0.13253537 0.7642406 1.0950097 0.33989096 0.7199675 0.41140762
2.0814342 0.85661185 -1.3751723 -1.3892437 -0.01400199 1.5111963 0.40922314 0.5590596
0.89024687 0.23492303 -2.2772634 1.0186865 -0.5138712 1.1246104 -0.9561093 1.0647571
-0.874937 1.0940331 1.7288876 1.0265979 -0.22670703 -0.6423345 -0.9700312 0.009760074
0.46584257 0.6643249 -0.7083993 2.0590894 -2.327993 -0.41594017 -1.239213 1.1255549
-2.0342035 0.5512061 0.29718408 -0.3337609 0.13916126 -0.967306 0.1859341 -0.801108
-1.9153098 1.5394245 1.2867903 -0.01907317 -1.6151488 0.9013597 0.58882976 2.131123
-0.022156043 0.22288153 -0.9860932 -0.12130137 -0.9427537 -1.6675806 -1.2556705 -0.37227774
-0.30582163 -1.6513195 -2.141238 0.118763864 1.1354673 -0.776633 0.8440979 0.6614858
1.7452826 -1.0621635 0.6838764 -0.15532237 -1.1679859 0.5912236 0.8599955 1.1068722
0.9174307 2.2238562 -0.9250626 -1.0787826 0.20661218 1.0470169 1.3050945 0.925536
-1.0628145 -1.1206256 -0.3689493 -0.5516585 0.18328355 0.2658639 -0.022912793 -2.2633812
-0.42756632 1.0118368 -1.4215046 1.8840772 0.47069508 -0.34702486 1.0379847 1.8510158
-0.23133186 2.039758 0.46950063 -1.2542543 -0.56186795 -0.07765395 0.24002437 2.1880856
-0.24284257 -0.72712076 -2.0301175 -1.0126935 -0.09087433 -0.15500867 0.04937508 0.4344309
-0.9973144 0.11532375 -0.7302607 0.56135947 -0.97733974 -0.0071432404 -0.7122756 1.660344
1.4726247 -0.9878301 0.60095 0.41761917 0.43116558 0.31290767 0.6995462 0.36898482

nation_embedding.weight f4 [18, 32]
00000000: 3d43 39bf 5579 2bc0 c1a5 00c0 330a ed3e
00000010: bce1 51bf 3258 ed3f 2678 073e 0c1f 0140
00000020: 9b8c f0be 983b 45bf 645e 88be 1990 d7bf
00000030: f236 103d e79a bcbe 226c b9bf 34de f93f
00000040: 5068 87be 7476 81bf 407b 4dbf e04a d4bf
00000050: f410 0540 c05d 4cbd abc6 853f e90d 1bbf
00000060: d9ce b43f 8619 603e fdab cc3e 2a83 9a3e
00000070: b8fa 49bf 2f68 ac3f d288 5b40 4030 9fbe
00000080: 24a7 da3f 788b 4ebf 9da8 8ebf 3168 ad3e
00000090: 29c6 89bf c70d c73f c13e ebbf 3939 41bf
000000a0: 8b2b c13f 16ea ab3f ea35 c8bf 8ae8 c1bf
000000b0: 330a 1a40 ad0c e7be 6f82 70bf d3b7 50bb
000000c0: ccbf 513f 87e5 a4bd d7df 0fc0 b6d6 0940
000000d0: 57a7 fbbf 56f4 a33e 066d 233f 3076 6abf
000000e0: 5f19 2ebf 6fc7 30bf 13fc 77bf bec3 a23d
000000f0: be29 803d c820 5d3d 2dcf 293f 0f06 adbe
00000100: e864 c93d e219 2e40 d9bb 5fbd 217d 2bbe
00000110: 79de d03f 8980 16bf d30e c1bf 1ac1 2d3f
00000120: 973c 65bf 8e8b 87be 74c1 953f 3a26 953f
00000130: 0d49 73bf f649 c73d 1774 f93e dac3 15bf
00000140: 4ef0 2b3e 9222 38bf 0874 603d 2359 b9bf
00000150: 8ebf 10be 9873 093f 481d 013f c69e 933f
00000160: a5d0 0dbf 2114 463f 7a15 0c40 24c7 f2be
00000170: 810e 64be 39ad d43f 5e94 e73e d7a1 153d
00000180: 951c f4bf 33d2 463f a320 313f 05bc d43f
00000190: 1791 d8bd e5f2 ba3e 8a01 2fbd 5bc3 d23e
000001a0: 48ae b83c 42c2 263f a7aa 833f 5ace 19bf
000001b0: df60 c7bc 3822 8c3f 2fcb 243f 2efe 1fbe
000001c0: 79ad 203f 69e7 263e a33d 17bf df51 a6bf
000001d0: bd4b ffbe 5be1 453f 3d25 b73f d9d6 53be
000001e0: 5864 0abf 994e 033f 7183 9d3d 70b6 e7be
000001f0: 9ac8 603f 7c63 f13c cee3 ab3f c8e4 803d
00000200: f2f7 203e e15f 2cbe 3ebf e0be b119 2540
00000210: 7bf4 f43f 1dc1 12bf c927 0740 bb21 e0bf
00000220: 6b6e 1dbf e93c eb3f 3926 3f40 29f8 b03f
00000230: aa9b b2be fc66 a5be 3618 2040 73ae acbe
00000240: 5451 48bf 2ada ad3f 7e57 e93f 4551 4ebe
00000250: 800e 6b3f 220c 6c3f 8e00 54bf 3ac8 9cbe
00000260: dcb0 ebbe e8aa 6f3e 6f1d 00bf 462b 48bf
00000270: 5ec6 adbf f5ce cebd 00e5 9abf 65bd 8dbe
00000280: e28c f4be ac74 91bf 0eeb 02bf 3fe4 f9bc
00000290: 91e4 933d 1434 f33e 1628 dcbe c5f9 143e
000002a0: 4df8 a3bf 0933 e93f 746c fdbf 3fa1 cdbd
000002b0: f25f af3f 3544 b0be 6b85 dfbf da49 443f
000002c0: 9927 f0be 96d1 70bf 49b6 f23f b27b 3f3f
000002d0: d431 59bf 4673 303f 80f4 fe3e d018 bbbe
000002e0: 0407 78c0 7a33 2cc0 5909 1d3e 104a 2fbe
000002f0: abfa b23f 01fe 13be a330 a0bd 2ed3 9fbf
00000300: 8a36 1840 8b51 aa3f f66f 8a3f 7482 fe3f
00000310: 5161 ce3f ee9d 653f 9796 e73f 6022 58bf
00000320: 43d4 2cc0 61bf 80be 146a cb3f 5c39 43be
00000330: 3dd8 1340 b3b4 8b3f f722 b43f d0c6 38bf
00000340: de04 ed3e 2a28 d0be ef85 ad3d f86e bf3f
00000350: d16f 8c3e 301c f63d fc1b 9a3f a22e 6e3f
00000360: 6a42 433f b8ba 0ebf 9429 4e3f dad6 1f3f
00000370: 9a53 b5be 0af2 453f 269d a4bf e9d8 803f
00000380: 044b 36bf 5abc c53f 6372 86be 807f 02c0
00000390: d14a 593f 9a11 753f e9f9 193f 485f 2abf
000003a0: a354 583f 1735 2f3e 3f3e cfbe f4b8 793e
000003b0: 2d69 b4be 2b6a 33bf 11c5 95be 6e0c 1ebf
000003c0: 6f01 be3f e0f2 29c0 d095 04c0 4a52 773e
000003d0: 3593 233f 369a 03be 4093 edbe a226 c1bd
000003e0: 4627 a3bf f85f a4bf f112 4d3d fd4e 253f
000003f0: c2f4 0f3f 9fc8 3ebe edb8 c03f 1353 323f
-0.7236822 -2.6792805 -2.0101168 0.46296844 -0.8198507 1.854254 0.13229427 2.01752
-0.46982273 -0.7704406 -0.26634514 -1.684085 0.03520865 -0.3683693 -1.4486125 1.9520936
-0.26446772 -1.0114274 -0.8026619 -1.658535 2.0791597 -0.049894094 1.0451254 -0.605681
1.4125625 0.21884736 0.39974967 0.30178195 -0.7889819 1.3469294 3.4302258 -0.310915
1.7082257 -0.8068156 -1.1145207 0.33868554 -1.0763599 1.555108 -1.8378526 -0.7547794
1.5091413 1.3430812 -1.5641453 -1.514909 2.4068725 -0.45126858 -0.93949026 -0.003184785
0.81933284 -0.08051591 -2.248037 2.15373 -1.9660443 0.3202235 0.6383823 -0.9158659
-0.68007463 -0.6905431 -0.9686901 0.07947491 0.06257962 0.05398634 0.6633175 -0.33793685
0.098336995 2.7203298 -0.054622505 -0.16746952 1.6317893 -0.5878988 -1.5082649 0.67872775
-0.8954558 -0.2647366 1.1699662 1.1652291 -0.9503334 0.09730904 0.48721382 -0.5850197
0.16790888 -0.7192775 0.054798156 -1.4480327 -0.14135572 0.5369201 0.50435305 1.1532829
-0.5539649 0.77374464 2.1888108 -0.47417557 -0.22271158 1.6615363 0.45230383 0.036531296
-1.9071223 0.7766449 0.69190425 1.6619879 -0.10574549 0.3651344 -0.042726077 0.4116467
0.022544041 0.65140164 1.0286454 -0.6008049 -0.024338184 1.0947943 0.64372534 -0.15624306
0.627647 0.16299213 -0.59078425 -1.2993735 -0.4986247 0.7729699 1.4308239 -0.20687427
-0.5405936 0.51291806 0.07691086 -0.45256376 0.87806094 0.029466383 1.3428895 0.062936366
0.15719584 -0.1683345 -0.43895906 2.579693 1.913711 -0.5732592 2.1118033 -1.7510294
-0.6149661 1.8377963 2.986708 1.3825732 -0.34884387 -0.32305133 2.5014777 -0.33726844
-0.78249097 1.3582203 1.8229825 -0.2014819 0.91819 0.92206013 -0.82813346 -0.3062151
-0.4603337 0.2340504 -0.5004491 -0.7819103 -1.3576162 -0.10098068 -1.2101135 -0.2768356
-0.47763735 -1.136373 -0.51139915 -0.030504344 0.0722133 0.4750067 -0.42999333 0.14548405
-1.281015 1.82187 -1.9798722 -0.10040521 1.3701155 -0.34427038 -1.7462591 0.7667519
-0.4690521 -0.940698 1.8961879 0.7479812 -0.84841657 0.68925893 0.49795914 -0.36542368
-3.8754282 -2.6906419 0.15335597 -0.17118096 1.3982748 -0.14452364 -0.07821777 -1.2486322
2.3783288 1.3306135 1.0815418 1.9883561 1.6123449 0.89694107 1.8092831 -0.8442745
-2.7004554 -0.2514601 1.5891747 -0.1906485 2.3100731 1.091452 1.407317 -0.72178364
0.46292776 -0.40655643 0.084728114 1.495574 0.2742906 0.12017095 1.203979 0.93039906
0.76273215 -0.5575366 0.80532193 0.6243721 -0.35415345 0.7732245 -1.2860458 1.0066196
-0.71208215 1.5448105 -0.26259145 -2.039032 0.84879786 0.9572998 0.6014696 -0.6655164
0.84504145 0.17110096 -0.40477178 0.2438696 -0.35236493 -0.70083874 -0.29251912 -0.61737716
1.4844187 -2.655449 -2.0716438 0.24152485 0.63896495 -0.12851796 -0.46401405 -0.09431197
-1.274636 -1.2841787 0.050066892 0.6457365 0.56232846 -0.18631218 1.5056435 0.6965801

rnn.weight_ih_l0 f4 [96, 32]
00000000: 6d89 e0be 6255 41be e80d 32be 7e80 a8bd
00000010: 5ab5 a2be 0e44 76bd 5f6b 7dbd 2ec3 18be
00000020: 08a2 2bbe 62cd 69be 6742 ce3d e14b dcbd
00000030: 76fe 36be 7dbc d93c 715a a5be 692d f43c
00000040: 8a8f a03b 51a2 36bc 6520 2d3d ce42 d03d
00000050: 8178 7dbe c468 09be 7b43 d13e c74f 65be
00000060: 48c3 c4bc c6f9 d33d c2ba 32be a54b 923e
00000070: b387 573e 73da 8a3e a4bc a83d 7f64 d8bd
00000080: f0e8 893d dc8c c3be 29af 853d 3368 453e
00000090: cc57 a1bd 7eba e2be d8ca 103d 8961 563d
000000a0: 10bd f43d 3273 d8bd 5d89 9e3e a7fa fc3d
000000b0: 36a1 5fbe ca18 9dbe f8ae 46be f2eb 493d
000000c0: 50b4 3e3e 5ef5 b5be a3a7 3bbd f920 b2be
000000d0: 9aaf 7a3b ef71 bfbd d8bf debd b99d 9cbe
000000e0: 6bfb 84bc 6138 ae3c 479c 5abd 61c4 093e
000000f0: 3387 8f3e 7805 6c3d 7c72 ad3e 7c40 4c3e
00000100: 14e4 98bd cc17 933d 6edd aabd a391 293e
00000110: 4a83 96be 74c8 013e 006a 30bd c162 793d
00000120: 715d 9a3e 992e babc 79d3 93be ea14 3f3d
00000130: f60b 94bd d107 d0bd 2411 093d d66c 953e
00000140: fd0e 8c3e e429 32bd eecf 19bd 1d10 b4bd
00000150: 679c 4b3e 1a15 283d e1b1 21be 531f 92be
00000160: 424d 83be 8bd9 0bbd 2b73 f13d c6a9 843e
00000170: 83c9 ad3e cfca f23e 7b56 933d 8025 69be
00000180: 2fe1 6ebe 9643 f73e 86ae f6bd 5ac1 013e
00000190: d8a2 9dbe 62a3 3f3e 5ffa 02bd a95a 55be
000001a0: 0426 80be d7bc 9fbe 0b29 55bd 0588 963e
000001b0: ab2d 943e ec97 263e 5964 89be 3222 6bbe
000001c0: 8783 cfbd 0284 acbe 2092 73bc 327b afbe
000001d0: 5ce6 3d3e ba20 ca3c 29e1 f6bd 04da 1739
000001e0: 5352 ff3e 4cd0 3dbe 8996 883d 275a 9a3d
000001f0: 5daf ea3c 47d7 883c 3d2e 553e e045 4e3e
00000200: 5a93 a4be 3ce7 1fbd 23ab 90bd e835 a8bd
00000210: 792d b5be d486 aebd e046 2dbe 8265 cb3c
00000220: b5b8 efbd b174 0fbe e89f 20be 2404 c7bd
00000230: 040d afbe 2bd1 6f3e 94bc 2cbe 8fa9 3f3e
00000240: 5f31 61bd d1f9 f43c 3408 223e 0e7d 093e
00000250: 5cc7 cfbd f3df 98bc 8c7e 3dbe ba51 ce3c
00000260: 9157 543e bbdb 663d b02c 0f3e 69cd 2cbd
00000270: fd64 ec3e 8602 bd3e 8b12 64be 284f 313c
00000280: 62d3 673e 4783 0fbe 7f17 f1bd 88ac d4be
00000290: afca cabe d99e b2bd 071c b1bd 1033 ba3c
000002a0: 332c d63d 1c94 943e 13cb 6cbe 36a0 77bd
000002b0: afd0 f43d 05d1 af3d 6324 5e3d 21ef fa3d
000002c0: 6298 bb3e b55d 20bd 2c0f 3fbe 1756 9e3d
000002d0: 5381 9d3e 617a 113e 8b62 99be f820 c43b
000002e0: 94e1 043f 6a8a 1a3e 1ebd 67be 493a 47bd
000002f0: 0726 043e e595 e43a 2cb0 e5bd 59d8 b1be
00000300: 8581 753e 0242 ac3c 2403 29be 0caa ec3d
00000310: 7721 3d3e a6c6 e23d 3b58 413e c04b b2bd
00000320: ae5f ac3e 428f c3be 3e75 6bbe 987f cabd
00000330: fde6 d53e 97c7 54be 1296 67be cce9 23be
00000340: e023 b63e 890c 53be 0c06 4e3e ba4a 563c
00000350: abe5 f63e 35ee a33e 1be3 183d f585 803d
00000360: 5830 b93d 6cc4 233e fb73 4e3e cbd7 8dbe
00000370: e124 153e 8133 513e d3dc f33d 85a8 f6be
00000380: 6299 033d 4008 35be 19bb 9cbe 545b 433d
00000390: 52bb 9d3d 30ee 913e 2e9b 02bd 74b3 4abe
000003a0: 7cac de3e 5c55 80bd de0e 31bc 6100 88be
000003b0: bbef c2bc 148f 303e 2594 ce3d 29bd 0d3e
000003c0: d78c 833e 2020 443e 66b9 383e c2a1 73bd
000003d0: df4b 363e 5be6 57be 2da3 893d 7102 f3bd
000003e0: 116a 59be 6adc 583c 79dc 393e 7fd0 d1bd
000003f0: 5f2c 0e3e 3736 673e 707b 1abe f6a7 06bf
-0.43854848 -0.18880227 -0.17388117 -0.08227633 -0.31778985 -0.060123496 -0.061869975 -0.14918205
-0.16761029 -0.22832254 0.10071259 -0.1075666 -0.17870507 0.026579136 -0.32295564 0.02980681
0.0048999237 -0.011147098 0.042267222 0.10168992 -0.24753 -0.13418871 0.40871796 -0.22393714
-0.024018899 0.10350375 -0.17454055 0.28573337 0.21047859 0.2711979 0.08239105 -0.10566043
0.067338824 -0.38193405 0.0652755 0.1927803 -0.07878074 -0.44282907 0.035349697 0.05233911
0.11950123 -0.10568847 0.30964175 0.12352496 -0.21838841 -0.30682975 -0.19402683 0.04929728
0.18623471 -0.35538763 -0.045814168 -0.3479078 0.003825164 -0.09347903 -0.10876435 -0.30589083
-0.016233167 0.021267118 -0.053371694 0.13453819 0.28032836 0.057622403 0.33876407 0.19946474
-0.074653774 0.07182273 -0.083430156 0.16559462 -0.2939704 0.12674123 -0.04306984 0.060885195
0.30149415 -0.022727298 -0.28872278 0.046650805 -0.07228844 -0.10157741 0.033463612 0.29184598
0.27355185 -0.04349698 -0.037551813 -0.08792136 0.19883882 0.04103575 -0.15790512 -0.28539523
-0.2564488 -0.034143012 0.11789545 0.25910777 0.33942804 0.47420356 0.07194229 -0.22768211
-0.23328088 0.4829375 -0.120450065 0.12671414 -0.30788302 0.1871467 -0.031977054 -0.20835365
-0.25029004 -0.3119876 -0.052041095 0.2940065 0.28941092 0.16268891 -0.26834372 -0.22962263
-0.10132509 -0.33694464 -0.014866382 -0.34273678 0.18544906 0.024673808 -0.12054665 0.000144817
0.49867496 -0.1853649 0.06669337 0.075367264 0.028648073 0.016704215 0.2081842 0.20143843
-0.3214367 -0.03903888 -0.07063892 -0.08213407 -0.35386255 -0.0852181 -0.16921568 0.024828676
-0.11705152 -0.14009358 -0.15686 -0.09717587 -0.34189618 0.23419635 -0.16868812 0.18717025
-0.054978725 0.029904278 0.15823442 0.13426611 -0.10145447 -0.018661475 -0.18505305 0.025185455
0.20736529 0.056361895 0.1398189 -0.042188082 0.46170798 0.36915988 -0.22272699 0.010822095
0.2263923 -0.14014922 -0.1177206 -0.4153788 -0.3960776 -0.08721704 -0.08647924 0.022729427
0.10457649 0.29019248 -0.23124342 -0.060455523 0.11953866 0.08584789 0.05423392 0.122526415
0.36639696 -0.039151866 -0.18658131 0.07731264 0.3076273 0.1420684 -0.29957995 0.0059853755
0.51906705 0.15091863 -0.22630736 -0.04863957 0.12905131 0.0017439692 -0.11215243 -0.34735373
0.23975189 0.021027569 -0.16505104 0.11555871 0.18469797 0.110730454 0.18881314 -0.087058544
0.33666748 -0.38195235 -0.22993943 -0.09887618 0.41777793 -0.20779262 -0.22615841 -0.16007155
0.35574245 -0.2061025 0.20119494 0.01307934 0.48222098 0.32017675 0.03732596 0.0627555
0.09042424 0.15992898 0.2016143 -0.277037 0.1456485 0.20429803 0.11907353 -0.48175445
0.0321287 -0.17678928 -0.30611494 0.04769452 0.07701744 0.28502035 -0.031886272 -0.19795018
0.4349097 -0.06266281 -0.010806767 -0.2656279 -0.023795953 0.1724208 0.1008685 0.1384169
0.2569339 0.1915288 0.18039474 -0.059480436 0.1780238 -0.21083967 0.067205764 -0.118657
-0.21231867 0.013236145 0.1815051 -0.102448456 0.13884114 0.22579275 -0.1508615 -0.5260004

rnn.weight_hh_l0 f4 [96, 32]
00000000: 69b9 c0be d653 e1be ec8e 823d 7acc b7be
00000010: 540c 34be 06fa 83be ce1b ec3d 3bf8 f0be
00000020: c77b 013e 2002 69bd 29de a23d 7eda 693d
00000030: 02fb dfbd c67b bd3d a8c8 4a3d d8d8 b13c
00000040: ae24 80be 3839 0cbd a629 eebe ce22 e0be
00000050: dfc7 8f3d f67b 7cbd a69c 9f3a 14bb b23c
00000060: 8195 e6be d410 53be 3fc5 dfbe f3e0 b3be
00000070: 817c 8c3d da32 19bc e5e2 fa3e dc77 86be
00000080: 7a26 cfbe 7917 86be 199f b0bd c4a2 dbbd
00000090: 10c6 28be 8cec 833e 933a 04bd a82c 20be
000000a0: 7429 61be 6bcf 6dbe 889e 43be b5f4 e0be
000000b0: f6b3 bc3d 4906 033e e555 603e 90c7 263e
000000c0: 53c1 d53d 8b3b adbe 9e6d 033f 9951 843e
000000d0: d259 07bf 803f fa3c 50ae ca3d 5e9b 333e
000000e0: 7587 0c3f 273b cbbd 8317 a6be d0c8 fb3d
000000f0: 44a2 bfbd cd9f 0abe fa5a 093f 8092 3b3e
00000100: ddb8 0a3d 8fc3 55bf 5f1d b83e e689 1c3f
00000110: f466 6fbe b5ce 303e 4ad7 dabe db94 efbd
00000120: c591 2ebe 6b0f 393f d35e 05bf e0b1 403e
00000130: dedc e8ba 8c7b c23e df49 1c3e 6cdd 70bc
00000140: f1d4 c93d 2cd2 b23c b1e9 bebe 7640 9abe
00000150: e3af 46be ff61 eebe c3e1 f8bd bc4b 54bd
00000160: ef09 373e 4a9c 60be 1e55 50be 947a 90be
00000170: 6fec 90be 6af5 32be 244b 023e e68d a4bd
00000180: da15 dfbe ca9e 5ebe 1c58 af3d efc1 a33e
00000190: 2272 1a3e ccfc eb3e 2b1e 87be 837c 72be
000001a0: 1efd b73c 4514 66bd 82c3 7abe 5381 c1bd
000001b0: 95bb 37bd 32d4 533d 6f7e 883e fe36 0f3f
000001c0: 2b4d b5be 65cd 61be 7ac9 70be 9f55 25bc
000001d0: d3d0 68bc 5cd3 b0bd beb8 133e b792 313c
000001e0: d36d 04be 9513 3fbe 532c d9bd 887d 053e
000001f0: 55ce ce3c 9519 113c 4812 0a3f 7123 823e
00000200: 65a6 e3bd 1fba b6be de21 863e c405 953e
00000210: 8088 0f3d a823 873d 46d5 4dbf dd9a f23c
00000220: ec4e 20bd 17d6 513d 8b9f b3be 8a70 4f3e
00000230: 0d03 9e3c 909d 9c3e 8cca b73e 2fac 26be
00000240: 2fcf cdbe 91c5 903c a09f 7dbe eda1 473d
00000250: ac76 adbd 7fcc ea3d 6c5c 95bc 2791 8cbc
00000260: 4934 853e 5d9d 31be d289 04bf 17b3 1abe
00000270: e498 3cbd 56d4 d3bd e03f 9e3e fb3d 343e
00000280: 39ff 293e a339 e8bb c3b6 71bd 6e80 d7bd
00000290: c23e 98be d1c1 c3be 749e b5be f4ef f1bd
000002a0: ca70 b3be 87b9 cbbd e548 f5bd 9ff0 f63c
000002b0: 1f59 673e e916 5a3e e756 133e a9fb d6be
000002c0: 9d49 643e 4736 48be f5eb 93be 3096 5b3e
000002d0: d6af 463e 7b61 943d eaf9 c33d e568 223d
000002e0: 6d93 9f3e 9579 47be e287 e83c 5a2d 173d
000002f0: 22e2 c83d d18a e53c c75f 6d3d 242e ea3d
00000300: 76cb c83d d620 2a3e d711 0c3e 1da0 27bf
00000310: 898e c83d 862a 133d ea56 633e 9656 323d
00000320: f07b dabe 1185 a6be 6a6b c33e 1386 2cbe
00000330: fb00 3b3e b778 c93d cd10 fcbd 27ce be3e
00000340: dd7c 523d 07b0 06be 3f05 b53e 7c96 43be
00000350: d673 4b3e 1ef6 e53d 408e a5bd ab10 7bbd
00000360: 4fd1 1d3e 6e3c e13c 46ec 7cbe 2d9b 023e
00000370: b5dc 493d a6eb 4e3e d3f5 a8be 44d4 0c3e
00000380: 83bd f23c b2db 1abf 2b15 913e 8104 193f
00000390: cf4a 0f3e 2855 263e d18c 80be e213 353d
000003a0: 0c5c 92be 372d 273f 16a0 b2be b388 65bd
000003b0: 1822 05bd 9c11 8b3d 0960 373e d7ac 28be
000003c0: 2b98 55bd e9ca e43d 958c c3be b223 e93d
000003d0: 1161 0a3e ba4c c7be 3615 983e 8caa 87bd
000003e0: cc41 5e3d 052c acbe 0d19 c1bd a824 84be
000003f0: ec33 ad3d 2961 55be 1712 8f3d 8455 bbbc
-0.37641457 -0.44009274 0.063749164 -0.3589819 -0.17582828 -0.2577669 0.11528741 -0.47064385
0.12644874 -0.056886792 0.0795253 0.057093136 -0.10936548 0.092521235 0.049507767 0.021709844
-0.25027984 -0.034234256 -0.4651615 -0.43776554 0.07020544 -0.061641656 0.0012177422 0.021817721
-0.45035937 -0.20611888 -0.43705174 -0.3513256 0.06859685 -0.009350503 0.49001232 -0.2626332
-0.40459043 -0.26189783 -0.086240955 -0.107244045 -0.16481805 0.25766408 -0.032282423 -0.15642035
-0.2198847 -0.23223655 -0.19103444 -0.43936697 0.09214012 0.12795366 0.21907766 0.16287065
0.10437264 -0.3383449 0.5133914 0.25843504 -0.5287143 0.030547857 0.09896529 0.17539737
0.5489419 -0.09923392 -0.32439813 0.12294161 -0.093571216 -0.13537522 0.53654444 0.18317604
0.033867706 -0.83501524 0.35959908 0.61147916 -0.23379117 0.17266352 -0.42742378 -0.11698314
-0.17047794 0.7228915 -0.52097815 0.18817854 -0.0017766019 0.37984884 0.15262555 -0.014701229
0.098550685 0.021828733 -0.37287667 -0.30127305 -0.19403033 -0.4655914 -0.12152436 -0.05183004
0.17874883 -0.2193462 -0.2034497 -0.2821852 -0.28305385 -0.1747643 0.12723976 -0.080348775
-0.4357136 -0.2174026 0.085617274 0.31983897 0.150826 0.46091306 -0.26390204 -0.2368031
0.022459563 -0.056171674 -0.24488643 -0.09448495 -0.044856627 0.051716037 0.2665896 0.55943286
-0.35410437 -0.22051008 -0.23514357 -0.010091214 -0.014209944 -0.086340636 0.14425942 0.010838202
-0.1293252 -0.18659814 -0.10604157 0.13036168 0.025244871 0.008856197 0.53934145 0.25417665
-0.111157216 -0.35688874 0.26197714 0.2910596 0.035042286 0.06598598 -0.80403554 0.02961486
-0.039137766 0.051229563 -0.3508266 0.20257774 0.019288564 0.3058896 0.35896719 -0.1627662
-0.4019713 0.017672332 -0.24767923 0.04873841 -0.084699005 0.11464786 -0.018232547 -0.017159058
0.26016453 -0.17345186 -0.517728 -0.1510738 -0.046044245 -0.10343234 0.30908108 0.17601769
0.16601266 -0.007086949 -0.059012186 -0.10522543 -0.2973538 -0.38233808 -0.35472453 -0.118133456
-0.3504699 -0.09947496 -0.11976794 0.030144034 0.22592591 0.21297802 0.1438862 -0.41988876
0.22293706 -0.19551955 -0.28890958 0.2144401 0.19403014 0.072451554 0.09569152 0.039650816
0.31167164 -0.19479974 0.028385106 0.036908485 0.098087564 0.028020294 0.05795267 0.11434582
0.09804432 0.16614088 0.1367868 -0.6547869 0.097928114 0.035929225 0.22201124 0.043539606
-0.42672682 -0.32523397 0.38167888 -0.1684802 0.18262093 0.09837478 -0.12307892 0.37266657
0.05138861 -0.13153087 0.35355565 -0.19100374 0.19868407 0.11228584 -0.08083773 -0.061295193
0.15411876 0.027494635 -0.24699506 0.12754507 0.04928275 0.2020708 -0.3300005 0.13752848
0.029631382 -0.6049148 0.28336462 0.597725 0.13993381 0.16243422 -0.25107434 0.044208415
-0.2858585 0.6530337 -0.3488776 -0.05603857 -0.032503217 0.06790468 0.17907728 -0.16472183
-0.05214707 0.111715145 -0.38193193 0.113837615 0.1351359 -0.38925725 0.29703683 -0.06624326
0.054261968 -0.33627334 -0.09428606 -0.25809216 0.08457169 -0.20837845 0.06985872 -0.022867925

rnn.bias_ih_l0 f4 [96]
00000000: 8f78 a1bc 9852 90bd d8f5 0a3d d9da 0e3d
00000010: d1ac 633e a4f1 183e 1b4d 113e 3763 093e
00000020: 4c96 903d 2c9e 63bd 2426 9c3e 5fa4 933e
00000030: f63c 1b3e 472d 8fbd 2951 1d3e ef7a 733e
00000040: 7d68 343e 6cef 9e3d 7ca9 63bd 885a 393e
00000050: 8ec4 2e3e 7103 3a3d a428 383e 8105 7e3e
00000060: e287 4b3e e36a 6d3e 0853 7cbd e359 5e3e
00000070: 25b5 99bc cb0e 153e f9e5 9abc 22ce e3bc
00000080: dc1e ccbe c848 c6bd 6467 54be c927 b73e
00000090: 0a7c 94be 73ed 8fbc c72d 9bbe 0dea d8bd
000000a0: a4b6 07be d688 be3e 83d6 ffbd 0b3c 9a3e
000000b0: 9fe0 283e 3f69 67be 0235 acbd e99a b7be
000000c0: 4a0a 0dbe 0b0c dd3d e8ac 573d b083 4cbd
000000d0: 1b75 933d 1fe1 7ebe 7609 3c3d 0a2c 01bf
000000e0: aafd 92be b4d8 563d 24d3 b8be b095 d0be
000000f0: ebb7 b1bc c8c7 3ebe 3acb 12bd 04d0 99be
00000100: 0783 dd3d 48ea 46bd 2640 233e 0e47 203e
00000110: 5246 babd b1b1 d0bd ff00 033d 253e 5fbd
00000120: d1fd 1abe c53b ddbc 471d eebd 4ee3 b2bd
00000130: af9d 463e b28b 8a3e 9d55 c93b df51 1d3e
00000140: 6eee 29be b1f3 933d 475b cb3d ff64 45be
00000150: dbb3 e7bd 1e8c 61be 4a65 f1bd 1325 b13d
00000160: e0e1 fb3c 1d47 3cbe 074a 113e e4f9 63be
00000170: 426d 853d 15f0 743d 47a8 1d3e 8299 223d
-0.019710807 -0.070470035 0.03392586 0.03487668 0.22233893 0.14935929 0.1418957 0.13416754
0.07059917 -0.055570766 0.3049785 0.28836343 0.15159974 -0.06991058 0.15362991 0.23777364
0.17617984 0.0776051 -0.055581555 0.18100941 0.17067167 0.04541344 0.17984253 0.24806787
0.19876054 0.23185305 -0.061602622 0.21713977 -0.018763134 0.14556424 -0.018908488 -0.027808253
-0.39867294 -0.09681851 -0.20742565 0.3577254 -0.29000884 -0.01756928 -0.30308363 -0.10591517
-0.13253266 0.37213773 -0.12492087 0.30123934 0.16491936 -0.22598742 -0.08408548 -0.35860375
-0.13773456 0.10793313 0.05265513 -0.049930274 0.072000705 -0.24890564 0.04590746 -0.50457823
-0.28709155 0.052452758 -0.36098588 -0.40739202 -0.021694144 -0.18630898 -0.035838343 -0.30041516
0.10816007 -0.04856327 0.1594244 0.15652105 -0.09095444 -0.10190142 0.03198337 -0.054502625
-0.15135886 -0.02700604 -0.11626678 -0.08734761 0.19396089 0.27059704 0.006144239 0.15363263
-0.1659486 0.07224215 0.09929519 -0.19276808 -0.113136016 -0.22026107 -0.117868975 0.086496495
0.030747354 -0.18386503 0.14188395 -0.22263294 0.0651498 0.059799273 0.15396224 0.039697178

rnn.bias_hh_l0 f4 [96]
00000000: 6fe5 6a3d 523e 153e 5da1 8e3e 009c 1cbc
00000010: d97c fd3d d66b aa3d 2152 3d3d df1e 34bd
00000020: 293a 93bd f923 833e 5331 7e3d 602e 7e3e
00000030: 034a 863e 75d3 03be caf7 103d 8cb2 8c3d
00000040: a55f 153e 4c77 ec3a d598 593e f37e f83d
00000050: f0f0 7d3d 5e4f 993d abad 173e 06e6 693e
00000060: 25df 963e 7850 c13d 6f3c ac3d 63e4 4e3e
00000070: 23b8 4b3e a112 2d3d c375 cb3d 0a4a 493e
00000080: 5650 b1be 0d1c df3d abc9 b9be 3681 eb3d
00000090: 5550 c9bd 1331 58be 765b d4be 5423 c5be
000000a0: 493b aabd d16d 713e 7112 b1be a326 ca3e
000000b0: 1682 c1bd 0c8e 34be 9328 3fbd db6b f1bd
000000c0: ed05 a2bc 6fab 093e f0fe fa3c bedd e73c
000000d0: 3ced 2ebe 1491 08bf 400c 2dbe 47b8 f7be
000000e0: 5579 b5be e618 c23d 6c8d 47be 910f 87be
000000f0: 4af4 49be 96b6 17be 180b 353e d301 eebe
00000100: 9ba3 50bb 5f77 c7bd f3f7 483d 8a5c c4bd
00000110: b481 76be f677 30be 7fef 08bc 697b 44be
00000120: 36ab acbe 9e46 993e 7284 babe 4d3c 0cbd
00000130: 68ad 313d e2e1 d6bc 2f01 75be ebe5 bebe
00000140: b10e c1be 362a 313e 2239 36bc 78e7 23be
00000150: da8a 8d3e 26b2 10be 1d0b 1ebe eb4b aabe
00000160: 5fbb 8bbe 06e0 98be 8795 d0bd a300 93be
00000170: e0a6 e83d 10b0 303e d026 923d 9964 813e
0.05734771 0.14574555 0.27857485 -0.009558678 0.123773284 0.08321349 0.046220902 -0.043974753
-0.071888275 0.25613382 0.062058758 0.24822378 0.2622834 -0.12873633 0.03539256 0.068699926
0.14587267 0.0018040924 0.21249707 0.12133589 0.061997354 0.07485841 0.14812343 0.22841653
0.2946712 0.09439176 0.08409964 0.2020431 0.19894461 0.042254094 0.09934571 0.1965715
-0.34631604 0.10894022 -0.36286673 0.114992544 -0.09829775 -0.2111247 -0.4147603 -0.38503516
-0.08312089 0.23577048 -0.34584382 0.39482602 -0.0944864 -0.17632312 -0.046669554 -0.1178815
-0.019778216 0.13444303 0.030639142 0.028303977 -0.17082685 -0.5334637 -0.16899204 -0.4838278
-0.35444131 0.09477405 -0.19487542 -0.26379064 -0.19722095 -0.14815745 0.17680013 -0.46485767
-0.0031835798 -0.09739565 0.049064588 -0.09587963 -0.24072915 -0.17233261 -0.008357882 -0.19187702
-0.33724374 0.2993669 -0.36429173 -0.034237195 0.043378264 -0.026230756 -0.23926233 -0.37284788
-0.3770652 0.17301258 -0.01112202 -0.16006267 0.27644998 -0.14130458 -0.15433927 -0.33261046
-0.2729139 -0.29858416 -0.1018477 -0.28711423 0.11359954 0.17254663 0.07136309 0.25272062

fc.weight f4 [80, 32]
00000000: 06e6 19be 9baa 1c3e 7961 d2be 3e21 2dbe
00000010: 92bb 913e 544b 523e 2402 bf3e 510f 193e
00000020: ee6d f33e 80bb ccbe 1b6a 28bd 64ac fc3e
00000030: c8d2 d0be e7bd 0dbe 7b50 e63d dd7f 5abe
00000040: a176 6c3e f557 12be e94d 853e 9433 053e
00000050: 8f13 01be 3eb5 c33d 5c47 c13e abdd 953e
00000060: 14d9 e0bd 8ba3 b83e 7c37 603e d2c8 643e
00000070: f5de 73be 5b46 b1be 0dbb 0ebe d74b 72be
00000080: 5cb1 0b3d baa0 2bbc fc4d 80be e69a 1ebe
00000090: 9d85 f13d d9da 6c3e 63f5 c83e e1eb cf3e
000000a0: e1b4 043e daa5 37be a10f 98bd 969b 0b3f
000000b0: c80c 9dba 6927 e8bd 238d 53bd 6cd3 f4bc
000000c0: 0471 4d3e 60a9 79be 09a3 133d 9dab ad3e
000000d0: b531 92be 2d2d 033e 54e0 443e 7827 e6bb
000000e0: 202f fe3d 15b6 933e 8698 933e 5050 97bd
000000f0: 7805 32bd 986a f6bb 759f 14be a1dc 50be
00000100: dc60 a33c 01f1 b03d 1b4c b1be 0ad5 fcbd
00000110: dfa1 8f3e 677d 583e 1530 d03e 443f 5b3e
00000120: 7c83 1b3e 931d bebe ea64 c33d 618e dd3e
00000130: 6fe8 a4be 1c9b 98be 482b 563e 7a73 47be
00000140: ca2c ca3d 34d5 5fbd 0714 893e 7153 983e
00000150: 8d8a c8bd 2807 b83d b401 a63e f12a 923e
00000160: b602 d33c 4d2c 593e c415 bf3e 3ef6 683e
00000170: a28e 9ebe b17d 1cbe a265 1fbe 28c1 c5be
00000180: 862c 1b3f 6fb0 743f e48c 8f3e 1f55 d4be
00000190: 66a9 8dbe 058d 96be 0805 193f 7a10 013f
000001a0: 71e1 dbbe 1c5e f93e da09 57be 2c42 e7bd
000001b0: 79fd bb3d 9d38 6cbf f442 f5be 8f3e bf3e
000001c0: 2f8e 87bd 85ec eb3e 7f96 27bf b35a 68be
000001d0: 458b 433e 0a94 31be 18e4 c1be b76f 81bd
000001e0: 67e4 42bf 81bc 54be 09f8 b93d 277f 7cbe
000001f0: c471 ee3c afaa 113f 1718 c93e a507 ab3e
00000200: f378 5cbe 3cdc 0bbe 9e82 2ebe 4083 05be
00000210: bb04 fe3e 34d0 af3e 3be6 54be b8d9 973d
00000220: ed34 63bc baa3 62be 3127 b23e 0be3 623c
00000230: a98d c93d 69f5 f93d 12c2 633e ec4b c23e
00000240: 803e 1d3d 3494 24be 3314 c3bd 88ff 133b
00000250: bc1f 1dbd f2dd 113f da5e 61bd ab5e fb3e
00000260: 718f 513d 19ad 5d3e b751 90be 3500 d43e
00000270: b7b6 92be e80f 86bd 6e87 333e 3b17 78bc
00000280: 376b df3e 17f0 0d3e e06c c93e f28c 253d
00000290: 11dd adbe f810 e8be 4f57 a03e 864f ffbe
000002a0: 4789 183e 3347 c93e 7c62 22be 9325 bebd
000002b0: 06bc 743e 2acf f63e c56e 60bd 8bc2 f3be
000002c0: 1ef6 a8be 6aa4 cfbe c04d 953d 9456 89be
000002d0: ddac ff3e 794c 84be acea 753e c6e2 87be
000002e0: 1220 b3be 6861 8ebe f104 ed3e 6c19 85be
000002f0: c912 153e 8c1d b63d a562 8f3d 7cf3 2fbd
00000300: c355 24be 77f5 2ebd 4f19 223e 9030 8e3e
00000310: df35 e0be 15e1 e2bd b604 9cbd d3ec 06bd
00000320: b761 023f e238 7bbd 7ebc 703e 936b 873d
00000330: 1711 ddbd 6f44 b8be 5b54 71be 17ba 883d
00000340: 69d4 99be 079c 883e 6d9a ab3c 9d1d 55bd
00000350: 21e8 803e 0336 bfbe 89f1 88be fe4d 04bf
00000360: 2455 943e 6417 16be 2bf0 90be d032 123e
00000370: 0345 f83e 484a 94bd b875 dfbd 5f53 f43e
00000380: b3da 9d3e f4ec f3be 3e8d d83e 70db 5dbb
00000390: 5eca 9abe a22b 573e 8f5e 3a3f 02b2 06bf
000003a0: 4774 f9be cfde 353e a0a4 80be 3957 f73c
000003b0: 4a3c 203e 6875 083f b79b 98bd 0489 25bf
000003c0: 6c94 71be bd77 eebd ddb3 7bbe 82d1 5b3d
000003d0: 671a 4a3e eb2c c6bd aadf 95be dd32 cdbe
000003e0: 214f 12bf 6661 8dbe 8df8 c33e 14d4 1cbe
000003f0: ac17 5d3e af4c 48be f386 e33d 5316 cf3e
-0.15029153 0.15299456 -0.4108999 -0.16907212 0.28463417 0.20536548 0.3730632 0.14947249
0.47544807 -0.399868 -0.041116815 0.49350274 -0.40785813 -0.13841973 0.11245819 -0.21337838
0.23092128 -0.14291365 0.26036003 0.13007957 -0.12605117 0.095560536 0.37749755 0.29270682
-0.10978904 0.36062273 0.21896166 0.22342232 -0.2381552 -0.3462399 -0.13938542 -0.23661743
0.03410469 -0.010475332 -0.25059497 -0.15488777 0.11793063 0.23130359 0.39249715 0.4060965
0.12959625 -0.17934361 -0.07424856 0.5453428 -0.0011981959 -0.11335642 -0.05164827 -0.02988597
0.20062643 -0.24381018 0.036044154 0.33919993 -0.28553548 0.12810202 0.192262 -0.007023748
0.12411332 0.28849855 0.28827304 -0.07388365 -0.043462247 -0.007520031 -0.14513953 -0.20396663
0.019943647 0.08639718 -0.34628376 -0.123453215 0.28053185 0.21141587 0.40661684 0.21410853
0.15186876 -0.37131938 0.09540732 0.4327269 -0.32208583 -0.2980584 0.20914948 -0.19477645
0.09871824 -0.054646686 0.26773092 0.2975116 -0.097920515 0.0898574 0.32423174 0.28548387
0.025758129 0.21208306 0.37321293 0.22750184 -0.30968195 -0.15282322 -0.15566114 -0.3862393
0.6061481 0.95581716 0.2803718 -0.41471192 -0.27668303 -0.29404464 0.597733 0.50415766
-0.42945436 0.48704612 -0.20999852 -0.11291918 0.091792054 -0.92273885 -0.47902644 0.37352416
-0.06618916 0.46078888 -0.65464014 -0.22690849 0.19096096 -0.17341629 -0.37869334 -0.06320136
-0.76129764 -0.20775034 0.09080512 -0.2465788 0.029106982 0.5690107 0.39276192 0.3340427
-0.21530513 -0.13658231 -0.17042014 -0.13038349 0.49612984 0.34338534 -0.20790951 0.074145734
-0.013867599 -0.22132769 0.34795526 0.013848077 0.09841473 0.122050114 0.22242 0.3794855
0.038389683 -0.1607216 -0.09525337 0.0022582728 -0.038360342 0.56979287 -0.055022098 0.49095663
0.051162187 0.21648063 -0.28187343 0.41406408 -0.28655025 -0.065460026 0.17532131 -0.015142257
0.43636486 0.13861118 0.39340878 0.04041762 -0.33957723 -0.45325446 0.3131661 -0.4986536
0.14896117 0.39312133 -0.15857881 -0.092845105 0.2389985 0.4820493 -0.054793138 -0.47609362
-0.33000273 -0.40555125 0.0729022 -0.26823866 0.49936572 -0.25839594 0.24015301 -0.26540202
-0.34985405 -0.2780869 0.46292832 -0.25995958 0.14557947 0.08892354 0.07001237 -0.042956814
-0.1604834 -0.042714562 0.15829967 0.27771425 -0.437911 -0.11078087 -0.07618086 -0.032940697
0.5093035 -0.061333545 0.23509404 0.06612315 -0.10794275 -0.3598971 -0.23567335 0.06676119
-0.3004487 0.2668154 0.02094766 -0.052030195 0.251771 -0.37345895 -0.26746777 -0.51681507
0.28971207 -0.1465736 -0.28308234 0.14277196 0.48490152 -0.072407305 -0.10911125 0.47719857
0.30830917 -0.47641718 0.4229526 -0.0033852719 -0.3023252 0.21012738 0.72800535 -0.5261537
-0.48721525 0.17760776 -0.251256 0.030192958 0.15647998 0.5330415 -0.07451575 -0.64662194
-0.23591775 -0.11643932 -0.24580331 0.0536666 0.19736634 -0.09676536 -0.29272205 -0.40077868
-0.5715199 -0.27613372 0.38275567 -0.15315276 0.21591061 -0.19560502 0.11109724 0.4044672

fc.bias f4 [80]
00000000: 2851 70bc 2003 19be c7bc b1be 79f3 00bd
00000010: ce42 5b3d 895d 493e 2c2b 883e e520 603e
00000020: 02c4 24be cf6c 64be 67e1 8abd 08f5 3e3d
00000030: b73a 25be a0c7 51bd 1f42 0f3e 790b 323e
00000040: 07ed 08bd af8c 9c3d 2546 993d a850 b8bd
00000050: 7ab7 c13d 51e4 efbb 9d21 e23d 32e6 a53c
00000060: 3c21 e3bd 8f70 f3bc 12c2 d4ba fade 753e
00000070: 40f8 e53c f958 6b3d 3321 59bd d0fa afbb
00000080: efd5 7b3d 9276 d3bd 9aa4 a93c 215c 04bd
00000090: dba1 23bc 8b4e 48be 376a 46be bd03 1c3d
000000a0: 63aa 69bd 794c e8bd 655e cbbd c759 1d3e
000000b0: 0abb dbbd 91a2 bbbd 2e08 a43c e58f a63d
000000c0: 779d d13b 05cf cdbd 09f7 e2bd 4261 02be
000000d0: a01b 3fbe d13d c83d cd94 52be c565 6c3c
000000e0: 8fa8 28be e092 91be c7e3 20be 8b95 02be
000000f0: eb51 a0be 2e77 8a3d 6bf5 dabd a8ec 65be
00000100: 0606 c9bd 757d 95be b5fc aabd 5d9d 1fbe
00000110: 3cd0 2abe 4d63 19be 2658 4dbe b768 19bd
00000120: dbd3 99be 1c41 19be fc44 e93c f05f 00be
00000130: 60aa 8fbe 877d 343d 9644 71be 813d 76be
-0.014667787 -0.14942598 -0.34714338 -0.031482194 0.053530507 0.19664587 0.26595438 0.21887548
-0.16090396 -0.22307132 -0.06781273 0.0466204 -0.16135679 -0.051215768 0.13990067 0.17387189
-0.033429172 0.07644021 0.07484082 -0.08999759 0.094588235 -0.0073209186 0.110415675 0.020251367
-0.11090323 -0.029716758 -0.0016232154 0.2401084 0.028072476 0.057457898 -0.053010177 -0.0053704754
0.06148332 -0.1032535 0.020708371 -0.032314423 -0.00998732 -0.19561212 -0.19376455 0.038089503
-0.05704726 -0.11342711 -0.09930114 0.15366279 -0.10729034 -0.091618665 0.020023432 0.081329145
0.006396945 -0.100492515 -0.110822745 -0.12732413 -0.18662882 0.097774155 -0.20564575 0.014428561
-0.1647055 -0.2843237 -0.1571189 -0.12752359 -0.31312498 0.06761013 -0.10691341 -0.22453558
-0.09815602 -0.2919728 -0.08348981 -0.15587373 -0.16680998 -0.14979286 -0.20053157 -0.03745338
-0.30044445 -0.14966244 0.028475277 -0.12536597 -0.28059673 0.044065025 -0.2356132 -0.240469
